ONNX agents/durak_agent_hard_4.onnx (onnx, 147454 bytes, 6 tensors)

StatefulPartitionedCall/sequential_1/dense_2_1/Cast/ReadVariableOp:0 f4 [128, 37]
0	0x3dc77c02	0.097404495
1	0xbe0726ab	-0.13198344
2	0x3e0cc34e	0.13746378
3	0xbde4dcf2	-0.111749545
4	0x3bca6b17	0.006177317
5	0xbda7ce45	-0.0819364
6	0x3e323180	0.17401695
7	0xbdd71d3f	-0.10503625
8	0xbe137e25	-0.14403589
9	0x3cc3c022	0.023895327
10	0x3e5208b0	0.20511127
11	0xbe1157e0	-0.14193678
12	0x3d859da1	0.06524206
13	0xbd970dd1	-0.07375682
14	0x3e2999e0	0.16562605
15	0xbd978cb9	-0.073998876
16	0x3e2de62d	0.16982336
17	0xbde688b0	-0.1125654
18	0x3e154018	0.14575231
19	0xbd3249c4	-0.04352738
20	0xbd7f8cc2	-0.062390096
21	0x3c57b9f5	0.013166894
22	0x3e10ed67	0.14153062
23	0xbd5faf8b	-0.05461077
24	0x3d32eb62	0.04368151
25	0x3e4dd370	0.20100188
26	0xbc3862f6	-0.011254063
27	0xbd572daa	-0.052533783
28	0x3e6dad5e	0.23210666
29	0xbb4ac65e	-0.003094099
30	0x3e037cc4	0.12840563
31	0x3dd4d176	0.10391514
32	0x3dbe0985	0.092791595
33	0x3e728070	0.23681808
34	0x3d721d7b	0.059110146
35	0x3d90726c	0.07053074
36	0xbda7a09c	-0.08184931
37	0x3cc92f64	0.02455873
38	0xbdab730a	-0.08371551
39	0xbd5c3b9e	-0.053767793
40	0xbda8e813	-0.0824739
41	0x3e290e8f	0.1650946
42	0xbc74e934	-0.014948178
43	0xbd4ae6be	-0.04953646
44	0x3e442093	0.19153051
45	0xbdaf4b9f	-0.085593455
46	0x3e435ff3	0.1907957
47	0x3d27ab23	0.040934693
48	0x3c325844	0.010885302
49	0x3dbeb33c	0.0931153
50	0x3df67f6c	0.120360225
51	0x3e3be8c4	0.18350512
52	0xbdcc1bdc	-0.09966251
53	0x3e758719	0.23977317
54	0x3dd4dcce	0.10393678
55	0xbd5eac9e	-0.05436384
56	0x3e8b2c2d	0.2718214
57	0xbc55367e	-0.01301348
58	0xbcf57c83	-0.029966598
59	0xbdb255df	-0.08707785
60	0xbddf43ee	-0.109016284
61	0x3e76f8c0	0.24118328
62	0x3e3b9936	0.18320164
63	0x3dcb1bff	0.09917449
64	0x3dbc00ca	0.09179838
65	0x3e0d5b6a	0.13804403
66	0x3d9eaf6b	0.07748302
67	0x3e238ee3	0.15972476
68	0x3de3be08	0.1112023
69	0xbd9cbe6d	-0.07653508
70	0x3dd2e428	0.102974236
71	0x3e2acce0	0.16679716
72	0x3e7bf03e	0.24603364
73	0x3deb2163	0.114809774
74	0x3dffc154	0.12488046
75	0x3cb69bbf	0.022291062
76	0x3e3659c4	0.1780768
77	0x3dddecea	0.108362034
78	0xbdf0ca33	-0.117573164
79	0x3d563e6d	0.052305628
80	0xbc71c2ea	-0.014755944
81	0xbcb72958	-0.022358581
82	0xbe057a72	-0.1303499
83	0xbc92a0a3	-0.017898863
84	0x3e1b6a6e	0.15177318
85	0x3dbb55e3	0.09147241
86	0x3dd598a4	0.104295045
87	0xbcbc4058	-0.0229799
88	0x3d857319	0.06516094
89	0x3d10cf53	0.03535397
90	0xbe04219b	-0.12903444
91	0x3d884d2e	0.06655346
92	0xbd8d044c	-0.06885585
93	0x3e1b5620	0.15169573
94	0x3e78c965	0.24295576
95	0xbe0b3252	-0.13593414
96	0x3e7edebd	0.24889655
97	0x3c1643f5	0.009171476
98	0x3e035e72	0.12828997
99	0x3db17505	0.08664898
100	0x3d66a4a4	0.056309357
101	0xbe075fab	-0.13220088
102	0x3dd3ded0	0.103452325
103	0xbdbf7f7f	-0.0935049
104	0xbd088fe7	-0.03334036
105	0x3bdf50c4	0.006815048
106	0xbcd47bd7	-0.025937958
107	0x3e179f1e	0.14806792
108	0x3d85e412	0.065376416
109	0xbd05d1c6	-0.03267076
110	0xbdfadeac	-0.122495025
111	0xbd6cd1b2	-0.05781717
112	0x3dec8c8b	0.11550244
113	0xbda7e6f4	-0.08198348
114	0x3dcb13c5	0.0991588
115	0x3e50570d	0.20345707
116	0x3d713b3a	0.058894373
117	0x3e093b53	0.13401537
118	0xbd545bad	-0.05184524
119	0xbda7a141	-0.081850536
120	0x3d8fb6b0	0.07017267
121	0x3e243691	0.1603644
122	0x3e4840ea	0.19556013
123	0xbcb38116	-0.021912139
124	0x3e7fb25c	0.24970382
125	0x3df54c3b	0.119774304
126	0x3dfa1881	0.12211705
127	0x3e4bdfbe	0.1990957
128	0xbd074bbd	-0.033031214
129	0x3ceb9c2f	0.028760998
130	0xbdae1203	-0.08499529
131	0x3e2404ea	0.160175
132	0x3e83c76b	0.2573808
133	0x3d95296e	0.07283293
134	0x3dadadfb	0.0848045
135	0x3e19a812	0.1500552
136	0x3dc8c4ee	0.09803186
137	0x3e1dfd53	0.15428667
138	0x3e6189ed	0.22025271
139	0xbd6f77c5	-0.05846383
140	0x3c5c6522	0.013451846
141	0x3df47870	0.11937034
142	0x3de36786	0.1110373
143	0x3ccff38b	0.025384685
144	0x3e1d7f74	0.15380651
145	0xbda2f45b	-0.07956763
146	0x3e875adf	0.26436517
147	0x3dc01dfd	0.0938072
148	0xbd320678	-0.0434632
149	0xbd904292	-0.07043947
150	0x3d331788	0.043723613
151	0xbcc2a81e	-0.023761805
152	0x3d9b90ec	0.07596001
153	0xbb2d56fb	-0.002644955
154	0x3d3d49ec	0.046213076
155	0x3e39df4f	0.18151592
156	0xbdc59fa1	-0.096495874
157	0x3d633a48	0.055475503
158	0xbdcccde8	-0.10000211
159	0x3e28ef40	0.16497517
160	0xbbff90ab	-0.007799228
161	0x3d8e6568	0.069529355
162	0x3e0ca89a	0.13736191
163	0xbd74d8e7	-0.059777167
164	0xbe01c156	-0.12671408
165	0xbdce5b9a	-0.10076065
166	0xbdfc91bb	-0.123324834
167	0xbcf8a000	-0.030349731
168	0xbe34c819	-0.17654456
169	0x3e1faf78	0.1559428
170	0x3d76b680	0.06023264
171	0xbcc51338	-0.024057016
172	0x3d9b4c24	0.07582882
173	0xbde09cf7	-0.10967439
174	0xbd9e9ce5	-0.07744769
175	0xbe34e0c2	-0.17663863
176	0xbe1e72ae	-0.15473434
177	0xbdf9276f	-0.121657245
178	0x3a2453a9	0.000626857
179	0xbdea4789	-0.114394255
180	0x3dd932e4	0.1060541
181	0xb6061870	-1.998178e-06
182	0xbe0b734c	-0.13618201
183	0x3c1004b4	0.008790184
184	0xbdd4f51d	-0.10398314
185	0xbcba52b1	-0.022744508
186	0x3e1f8459	0.1557783
187	0xbd3490d0	-0.044083416
188	0x3e32dcdb	0.17467062
189	0xbd031d0f	-0.032010134
190	0x3d75a0ad	0.059967685
191	0x3d4a7c28	0.04943481
192	0xbda3806a	-0.079834774
193	0xbc6eb1b9	-0.01456874
194	0xbd84de62	-0.06487729
195	0x3e55ddf4	0.2088545
196	0x3da0d2b9	0.07852692
197	0xbc1eaf3d	-0.009685335
198	0x3e371c4d	0.1788189
199	0xbd346322	-0.044039853
200	0x3e364956	0.17801413
201	0x3e07d29a	0.13263932
202	0x3e5bfa59	0.21482219
203	0x3d7dde5b	0.061979633
204	0x3d736b39	0.059428427
205	0x3de256b2	0.11051692
206	0x3d73fa8e	0.05956512
207	0x3e8e1ffe	0.27758783
208	0x3e27f880	0.16403389
209	0x3e6ac596	0.22926936
210	0x3e0cb00c	0.13739032
211	0x3e76e4f1	0.24110772
212	0xbd9a26d5	-0.07526938
213	0x3e56969a	0.20955887
214	0x3cdf535b	0.027261427
215	0xbd1fc90e	-0.0390101
216	0x3a46cd62	0.0007583705
217	0x3db9c9a3	0.09071662
218	0x3da2a222	0.07941081
219	0x3e15736b	0.1459481
220	0x3e02f17c	0.12787431
221	0x3e672d20	0.22575808
222	0xbda1889b	-0.078873836
223	0x3e5d25a9	0.21596397
224	0x3dadce77	0.08486646
225	0xbda5289e	-0.08064388
226	0x3dd7951b	0.105264865
227	0xbda41889	-0.08012492
228	0x3e0e8ba2	0.13920453
229	0xbdb00d37	-0.085962705
230	0x3e20010b	0.15625398
231	0xbdd0069c	-0.10157511
232	0x3e5c39ba	0.21506396
233	0x3d9a3755	0.07530085
234	0xbd19d1fd	-0.037553776
235	0x3e6e6e7f	0.23284338
236	0x3cf64d09	0.03006603
237	0xbd313c75	-0.043270547
238	0xbd55ecea	-0.052227892
239	0x3e108a25	0.14115198
240	0x3e7154a2	0.23567441
241	0xbd89d373	-0.06729784
242	0x3e37f56e	0.17964718
243	0x3d964ba4	0.07338646
244	0x3def314d	0.11679325
245	0x3e5d981b	0.21640055
246	0x3e4a03c3	0.19727997
247	0x3e01dae5	0.12681158
248	0x3ca17407	0.019708646
249	0xbdae4ba7	-0.08510523
250	0xbdc82feb	-0.097747646
251	0x3e5491df	0.2075877
252	0xba175266	-0.0005772471
253	0x3e671146	0.22565183
254	0x3dcd248d	0.10016737
255	0x3d89a703	0.06721308

StatefulPartitionedCall/sequential_1/dense_2_1/BiasAdd/ReadVariableOp:0 f4 [37]
0	0x3d53f7e3	0.051750075
1	0x3d77202c	0.060333416
2	0x3d7dce79	0.061964486
3	0x3d66ecc4	0.05637814
4	0x3d6a03dd	0.05713259
5	0x3dae23fa	0.08502956
6	0x3d912372	0.07086839
7	0x3d9d6322	0.07684924
8	0x3d38370d	0.044974376
9	0x3d86b19b	0.06576844
10	0x3d824fda	0.06362887
11	0x3d81e6eb	0.06342872
12	0x3d87108c	0.06594953
13	0x3d3335e3	0.043752562
14	0x3d670e2d	0.056410003
15	0x3d45ec40	0.04832101
16	0x3d6f8489	0.058476005
17	0x3d13671d	0.03598701
18	0x3d794ea4	0.060866013
19	0x3d6178fd	0.055047024
20	0x3d8592cf	0.06522142
21	0x3d6bdca3	0.057583462
22	0x3d8efbf9	0.06981654
23	0x3d8ce8a9	0.06880314
24	0x3d366790	0.04453236
25	0x3d3d80d0	0.046265423
26	0x3d6d1d6c	0.057889387
27	0x3d610d1c	0.054944143
28	0x3d94f09c	0.07272455
29	0x3d5b31a6	0.053514145
30	0x3d5cc93e	0.053902857
31	0x3d6fd7d1	0.058555428
32	0x3d83eb34	0.06441346
33	0x3d9cff78	0.07665914
34	0x3d8524da	0.065011695
35	0x3d1ad9f3	0.03780551
36	0x3dcc580b	0.0997773

StatefulPartitionedCall/sequential_1/dense_1_2/Cast/ReadVariableOp:0 f4 [128, 128]
0	0xbd941417	-0.07230394
1	0x3c66d50c	0.01408888
2	0xbcef7dba	-0.029234756
3	0x3e09beb4	0.13451654
4	0x3ce8cfaf	0.028419344
5	0x3e5208ee	0.20511219
6	0xbc8abf83	-0.016937023
7	0x3e5dce67	0.21660767
8	0x3e5f8374	0.21827489
9	0xbd2c5154	-0.042069748
10	0x3e518037	0.20459066
11	0x3db61b76	0.088919565
12	0x3e4e8c18	0.20170629
13	0xbd6303f4	-0.055423692
14	0xbc35d743	-0.011098686
15	0x3dd90976	0.10597508
16	0x3e2a6551	0.16640212
17	0x3e03c0f0	0.12866569
18	0xbc1aa467	-0.009438611
19	0x3e27a647	0.16372024
20	0x3dc46445	0.095894374
21	0x3c54800e	0.012969984
22	0x3e3ea2a9	0.18616737
23	0x3e1edf3a	0.15514842
24	0xbdd76996	-0.10518186
25	0x3d8a1640	0.06742525
26	0x3e7c67b3	0.24648933
27	0x3d6ed5a7	0.058309224
28	0xbcd22962	-0.025654498
29	0x3d0a8e13	0.0338269
30	0xbcc3b7b0	-0.0238913
31	0xbbdf7c61	-0.006820247
32	0x3d101871	0.03517956
33	0x3e347aff	0.17625044
34	0xbd30ee62	-0.04319609
35	0x3bce8d75	0.006303484
36	0x3e7b792b	0.2455794
37	0xbc6baee9	-0.014384964
38	0x3e270c36	0.16313252
39	0x3e4a2181	0.19739343
40	0x3df28701	0.11842156
41	0x3e0ae58a	0.13564125
42	0xbd718289	-0.05896238
43	0xbd438fef	-0.047744688
44	0xbd07bf6c	-0.03314154
45	0xbdd71120	-0.10501313
46	0x3e25f23c	0.16205686
47	0x3d2bdda7	0.04195943
48	0x3d7ae45b	0.061252933
49	0x3e8b3174	0.27186167
50	0x3e00aea2	0.12566617
51	0x3e2f2430	0.17103648
52	0xbd9668a3	-0.073441766
53	0x3de613d7	0.11234253
54	0x3d36f79e	0.04466974
55	0x3ddc42f3	0.10754957
56	0x3e1a0600	0.15041351
57	0x3d423ded	0.04742234
58	0x3e179c89	0.14805807
59	0x3d592442	0.053013094
60	0xbd13076a	-0.035895742
61	0xbc386f44	-0.011256997
62	0x3d0edba2	0.034877427
63	0x3e483b68	0.19553912
64	0x3cffdcde	0.031233247
65	0x3d1ad614	0.037801817
66	0x3c522039	0.012825065
67	0x3df60cbb	0.12014147
68	0x3e0e3e20	0.13890886
69	0x3cbbf0da	0.022941995
70	0x3e3d5b6a	0.18491903
71	0x3dfd3e02	0.12365343
72	0xbdb94914	-0.09047142
73	0x3e30463f	0.17214297
74	0xbbbcf3ac	-0.0057663526
75	0x3e438813	0.19094877
76	0x3d461716	0.04836186
77	0x3dd6e84a	0.104935244
78	0x3dc283bb	0.09497782
79	0x3c08f540	0.008359253
80	0x3d02fea7	0.031981137
81	0x3e2b0ab4	0.16703302
82	0x3e05ea07	0.13077556
83	0x3cbc2bf2	0.022970174
84	0x3e22616c	0.15857476
85	0xbdad24ed	-0.08454309
86	0xbcfc6a00	-0.030812263
87	0x3dfacb6e	0.122458324
88	0x3c1b9428	0.009495772
89	0x3dde4dc1	0.10854674
90	0xbcfd6afc	-0.030934803
91	0xbd7503dc	-0.059818134
92	0x3e076935	0.13223727
93	0xbd9b37ca	-0.07579
94	0xbbf96f41	-0.0076121395
95	0xbd8c443f	-0.068489544
96	0x3d96795f	0.073473684
97	0x3dd509b2	0.1040224
98	0xbcd358bc	-0.025799148
99	0x3db391f9	0.087680764
100	0x3e239280	0.15973854
101	0x3df95cae	0.1217588
102	0x3d58b838	0.05291006
103	0x3e000467	0.1250168
104	0x3ccd5d3a	0.025068868
105	0x3d512ce4	0.0510682
106	0x3e096dc7	0.13420783
107	0x3d85ffe0	0.06542945
108	0x3bda2023	0.006656663
109	0xbd710e6e	-0.05885165
110	0x3df85879	0.1212625
111	0x3da43e4e	0.08019696
112	0x3cc8cf7e	0.024513002
113	0x3da56758	0.08076352
114	0x3d954466	0.072884366
115	0x3e026a9c	0.12735981
116	0xbcc0b845	-0.023525367
117	0x3e4732c3	0.19452958
118	0x3dd7001d	0.104980685
119	0xbbafe13d	-0.0053674267
120	0xbdc8520a	-0.09781273
121	0x3ddf6947	0.10908752
122	0x3dd64817	0.10462969
123	0x3e6e0cd5	0.23247083
124	0x3d81b87e	0.06334017
125	0x3d9384c5	0.07203058
126	0x3e2aac97	0.166674
127	0xbd8c4b84	-0.06850341
128	0xbe30404a	-0.17212024
129	0x3e10ca24	0.1413961
130	0x3da24954	0.079241425
131	0x3db636ac	0.088971466
132	0x3df2dd0c	0.118585676
133	0x3e1aa9f0	0.15103889
134	0xbdf57f81	-0.1198721
135	0x3d67c94a	0.05658845
136	0xbcda85fa	-0.026675213
137	0x3e0269f2	0.12735727
138	0x3dfc5451	0.123207696
139	0x3d9127b9	0.070876546
140	0x3de174fe	0.110086426
141	0xbd92f924	-0.07176426
142	0xbd61969b	-0.05507527
143	0x3d8d2c0c	0.06893167
144	0x3d954717	0.0728895
145	0x3c99aad8	0.018758222
146	0x3dc9c481	0.09851933
147	0x3df8498f	0.12123405
148	0x3c3e4e8d	0.011615408
149	0x3e592eb1	0.21209218
150	0x3e4481e9	0.19190182
151	0x3d071120	0.032975316
152	0xbca5d5fe	-0.020243641
153	0x3c27e1ab	0.0102466745
154	0x3e44113c	0.191472
155	0x3d568231	0.052370254
156	0x3da6748d	0.08127699
157	0x3dafc311	0.08582128
158	0x3c735f23	0.014854225
159	0xbcc118c7	-0.023571385
160	0x3dc4df5f	0.09612917
161	0x3e0e838e	0.13917372
162	0x3dc2c15b	0.09509536
163	0x3c1a18eb	0.009405355
164	0x3de0fb94	0.10985485
165	0x3d997562	0.07493092
166	0x3e3a5b1e	0.18198821
167	0x3df32133	0.118715666
168	0x3e46f03f	0.19427584
169	0x3e147d99	0.14501037
170	0x3e61c453	0.22047548
171	0x3e742716	0.23843035
172	0x3e49a0d5	0.19690259
173	0xbe17a7d0	-0.14810109
174	0x3df39043	0.1189275
175	0xbd135c31	-0.035976592
176	0x3e418227	0.18897305
177	0xbce176a2	-0.027522389
178	0x3e5073fc	0.20356745
179	0x3df7a60d	0.120922185
180	0x3e3e883f	0.18606661
181	0x3d02859f	0.031865712
182	0xbd0eb366	-0.034839056
183	0x3df95a5e	0.12175439
184	0xbdee5b7d	-0.11638544
185	0x3e001b66	0.12510452
186	0xbb29d5d1	-0.0025914798
187	0xbd841b82	-0.06450559
188	0x3d9646a5	0.07337693
189	0x3cbaab98	0.0227869
190	0x3d14f8bc	0.036370024
191	0x3e08c8a2	0.13357785
192	0x3e68b760	0.22726202
193	0xbb776237	-0.003774775
194	0xba011283	-0.0004923718
195	0xbd51ab4e	-0.05118876
196	0xbd5d95fc	-0.054098114
197	0xbc6a55ce	-0.014302684
198	0xbc22475f	-0.0099047115
199	0xbd28f10d	-0.04124551
200	0xbdea7e03	-0.11449816
201	0xbc4a6c36	-0.012354901
202	0x3e033b4e	0.12815592
203	0x3d622fa2	0.055221207
204	0x3db07ac9	0.086171694
205	0x3dff295d	0.12459061
206	0x3e2f2417	0.17103611
207	0x3dc5ee6a	0.096646145
208	0x3d114010	0.035461485
209	0x3e411329	0.18854965
210	0x3dac87aa	0.08424313
211	0xbd5c0499	-0.053715322
212	0x3e1014d0	0.1407044
213	0x3dcb6210	0.09930813
214	0x3e09a9ee	0.1344373
215	0x3d26f018	0.040756315
216	0xbca33050	-0.019920498
217	0x3cf32424	0.02968032
218	0xbd1628ca	-0.036659993
219	0x3e103251	0.14081694
220	0xbdf7c6c7	-0.12098461
221	0xbd732a08	-0.059366256
222	0x3b22c669	0.00248375
223	0x3da5449f	0.08069729
224	0x3e0c489c	0.13699573
225	0x3e4aa7fd	0.19790645
226	0x3d0855f2	0.03328509
227	0xbd9d74b1	-0.07688273
228	0x3e6b6ebe	0.22991464
229	0x3e3e57e0	0.18588209
230	0x3e0f16d3	0.1397355
231	0x3dd06ec2	0.101773754
232	0x3da5c64f	0.08094465
233	0x3b8bb26c	0.004263213
234	0x3df2d0de	0.118562445
235	0xbe0d2711	-0.13784434
236	0xbd89ed5b	-0.06734725
237	0x3dd6aabb	0.10481783
238	0xbd174b55	-0.036937077
239	0xbdbe3009	-0.09286506
240	0xbda7b438	-0.08188671
241	0x3dbce1fb	0.0922279
242	0x3d2b0b34	0.04175873
243	0x3de8fa06	0.11375813
244	0x3d0e16fc	0.03468989
245	0x3e1333d5	0.14375241
246	0x3dec7d4d	0.11547337
247	0x3e614b4a	0.22001377
248	0x3dfcef91	0.12350381
249	0x3da5f047	0.0810247
250	0x3d8b7ba4	0.06810692
251	0x3beb55a0	0.007181838
252	0x3e4e4599	0.20143737
253	0xbd885c74	-0.06658259
254	0x3e46e65d	0.19423814
255	0x3e020d7b	0.12700455

StatefulPartitionedCall/sequential_1/dense_1_2/BiasAdd/ReadVariableOp:0 f4 [128]
0	0x3c4d392e	0.01252584
1	0x3daba8d2	0.08381809
2	0x3afc1588	0.0019232491
3	0x3dca8770	0.09889114
4	0xbc248ca4	-0.010043297
5	0x3db7fd68	0.0898388
6	0x3cec51c7	0.028847588
7	0x3db99945	0.09062437
8	0x3daf9456	0.08573215
9	0x3db22261	0.086979635
10	0x3dedef77	0.1161794
11	0x3dbf2fec	0.09335312
12	0x3dde6a7b	0.10860153
13	0x3dabd14f	0.08389532
14	0x3d8b235f	0.06793856
15	0xbc90aebc	-0.017661445
16	0x3db8b7cd	0.09019432
17	0x3dbc6f4b	0.09200915
18	0x3d16a4a1	0.036778096
19	0x3df230b6	0.11825697
20	0x3b23bb60	0.002498351
21	0x3dc57cc4	0.09642938
22	0x3d47b8fb	0.048760395
23	0x3db95caa	0.090508774
24	0x3c8ea9cd	0.017414952
25	0x3d5c6b25	0.05381312
26	0x3dc0ce48	0.09414345
27	0xbbc9f657	-0.006163399
28	0x3bdfcd89	0.0068299216
29	0x3ddb20a7	0.10699587
30	0xbc4c6250	-0.012474611
31	0x3d8fd6da	0.070234016
32	0x3b29d0a5	0.0025911715
33	0x3dd4ff8f	0.104003064
34	0xbcb1b10c	-0.021690868
35	0xbc4aeb33	-0.012385177
36	0x3dff341d	0.12461112
37	0x3d1e45fb	0.038640957
38	0x3dae1677	0.085003786
39	0x3daca63f	0.084301464
40	0x3db19a6b	0.08672031
41	0x3cb8cbf2	0.022558186
42	0x3dacae31	0.08431662
43	0x3dee0482	0.116219535
44	0x3db59980	0.088671684
45	0xbb48591d	-0.0030570694
46	0x3d030ac2	0.03199268
47	0x3d78d897	0.06075343
48	0x3dd37723	0.10325458
49	0x3dd74f7e	0.10513209
50	0x3d750ac0	0.059824705
51	0x3d981208	0.07425314
52	0x3d80890e	0.06276141
53	0x3dc110df	0.09427046
54	0x3d1d9d45	0.038480062
55	0x3d86b8e6	0.06578235
56	0x3d2f77cc	0.042838857
57	0x3db677de	0.089095816
58	0xbb91489a	-0.0044337036
59	0x3d0fc097	0.035095777
60	0x3d5b2106	0.05349829
61	0x3dc89690	0.097943425
62	0x3dcf185c	0.10112068
63	0x3db0637e	0.08612727
64	0x3dcacb65	0.09902076
65	0x3d88a5ea	0.066722706
66	0x3d4149b6	0.047189437
67	0xbc87450c	-0.016512416
68	0x3da44a79	0.08022017
69	0x3da9bbbe	0.08287762
70	0x3d8371d3	0.064181946
71	0x3d96ab75	0.073569216
72	0xbb4fcf1e	-0.0031709145
73	0xbc24f24d	-0.010067535
74	0x3df0dee9	0.11761267
75	0x3d7dd36e	0.061969213
76	0xbcce1d48	-0.025160447
77	0x3d93c986	0.07216172
78	0x3d2d8bac	0.04236953
79	0x00000000	0.0
80	0x3c81ecf8	0.015860066
81	0x3d67713c	0.056504473
82	0x3d7cc5b6	0.06171199
83	0x3d9c19ff	0.07622146
84	0x3d97571e	0.07389663
85	0x3be8ea5c	0.007108016
86	0x3db801c3	0.08984711
87	0x3d506699	0.050879095
88	0x3dfb1db7	0.12261527
89	0x3dc5fcd7	0.09667366
90	0x3db871ca	0.090060785
91	0x3acdc407	0.001569868
92	0xbc0756cb	-0.008260439
93	0xbb2903fb	-0.0025789726
94	0x3cb41c5f	0.021986185
95	0x3d693722	0.056937344
96	0x3dc83093	0.0977489
97	0x3dbee28c	0.09320554
98	0x3d824df5	0.063625254
99	0xbc34889b	-0.011018897
100	0x3dc5bdca	0.0965534
101	0x3dc47e1f	0.09594368
102	0x3dab165f	0.08353876
103	0xbcade41c	-0.021226935
104	0xbb59257f	-0.0033133922
105	0x3db3af4a	0.08773668
106	0xbc2e94f4	-0.01065563
107	0xbba0ff23	-0.004913227
108	0x3d10472f	0.035224136
109	0x3d3da55b	0.046300273
110	0x3c9419a1	0.018078627
111	0x3cdc4afc	0.026891224
112	0x3da48d25	0.08034734
113	0x3da8ba20	0.082386255
114	0x3da02d0e	0.078210935
115	0x3d83909d	0.06424067
116	0x3dbc6894	0.09199634
117	0x3d90763b	0.07053801
118	0x3c08954e	0.008336378
119	0x3dd7c9c0	0.10536528
120	0xbc30c361	-0.010788769
121	0x3d061a5e	0.03273999
122	0x3d258196	0.040406786
123	0x3dad8d5b	0.08474227
124	0x3d5fb712	0.05461795
125	0xbc830104	-0.015991695
126	0x3de2f2c1	0.11081458
127	0x3d7242d6	0.05914577

StatefulPartitionedCall/sequential_1/dense_1/Cast/ReadVariableOp:0 f4 [116, 128]
0	0x3da18f36	0.078886434
1	0x3d9ea4f3	0.07746305
2	0x3e3be6f4	0.1834982
3	0x3caf98e1	0.021435203
4	0x3da1f0c0	0.079072475
5	0x3e4030af	0.18768571
6	0x3bb5189c	0.0055266153
7	0x3cdde60f	0.02708724
8	0x3c978332	0.018495176
9	0x3d7a0f36	0.061049663
10	0x3e638deb	0.22222106
11	0x3d3bb140	0.045823336
12	0xbbe81746	-0.0070828525
13	0xbc19c580	-0.009385467
14	0x3c90ba8b	0.017667076
15	0x3de0f948	0.109850466
16	0x3e0b3a5f	0.13596486
17	0x3e207020	0.15667772
18	0x3e19097c	0.14945024
19	0x3d9da140	0.076967716
20	0x3e06f8f2	0.13180903
21	0x3e8dd8ce	0.2770447
22	0x3e703e98	0.23461378
23	0x3e0291c7	0.12750922
24	0x3e615ddf	0.22008465
25	0xbd4c3598	-0.0498558
26	0xbd596e85	-0.053083915
27	0x3d20cbe7	0.039256956
28	0x3e096f09	0.13421263
29	0xbcd5da2a	-0.026105005
30	0x3e18df12	0.14928845
31	0x3e34a024	0.17639214
32	0x3e297352	0.16547897
33	0x3e2373b8	0.15962112
34	0x3d7881da	0.06067071
35	0xbc9ae261	-0.018906774
36	0x3cfed718	0.031108424
37	0x3bc433e8	0.005987633
38	0x3e8da428	0.27664304
39	0xbd4e7e7e	-0.0504136
40	0x3e217f9c	0.15771335
41	0x3dac67e7	0.08418255
42	0x3e725cc3	0.23668198
43	0x3e6f8ea7	0.23394261
44	0xbd69b418	-0.057056516
45	0x3e17aa40	0.14811039
46	0x3e4d7687	0.20064746
47	0x3daa845d	0.083260275
48	0x3e33fb3d	0.17576309
49	0xbc912922	-0.017719809
50	0x3dd5f373	0.10446825
51	0xbc3b58b3	-0.011434722
52	0x3dc38b1b	0.09548017
53	0xbc745f90	-0.014915362
54	0x3e16ab65	0.1471382
55	0x3db70e76	0.08938305
56	0x3e4ffb8c	0.20310801
57	0x3e0d84cf	0.13820194
58	0x3c0d15f0	0.008611187
59	0x3e54a603	0.20766453
60	0x3da7347e	0.08164309
61	0x3e32dcf0	0.17467093
62	0x3e583578	0.21114147
63	0x3e09acff	0.13444899
64	0xbd96378e	-0.07334815
65	0x3cdb078a	0.026736993
66	0xbce4483b	-0.027866473
67	0x3d810c2f	0.06301152
68	0x3e0b56d6	0.13607344
69	0x3d42188f	0.047386702
70	0x3e69b43e	0.22822663
71	0x3e28c246	0.1648036
72	0x3e5b25d0	0.21401143
73	0x3db69d31	0.08916701
74	0x3ceb32ee	0.028710809
75	0x3e4929b7	0.19644819
76	0x3e112157	0.14172874
77	0xbd38602e	-0.0450136
78	0x3e2ebd57	0.17064415
79	0xbde285ef	-0.11060702
80	0x3e30fa70	0.17283034
81	0x3da1d94f	0.079027764
82	0x3db14710	0.08656132
83	0x3e603407	0.21894847
84	0x3dec3c76	0.115349695
85	0xbd956182	-0.07293989
86	0xbcc4ea4f	-0.024037508
87	0x3e85f530	0.26163626
88	0x3e0c50b3	0.1370266
89	0x3e4c0e58	0.19927347
90	0xbd8e412b	-0.069460236
91	0xbd998401	-0.07495881
92	0x3e6173dd	0.22016855
93	0xbd120f28	-0.035658985
94	0x3e14e8dd	0.14541955
95	0x3e367e23	0.17821555
96	0xbd3db04d	-0.04631071
97	0x3e611cc7	0.21983634
98	0x3e4970f7	0.19671999
99	0x3e3021df	0.17200421
100	0x3e52f7e1	0.20602371
101	0xbc1f280f	-0.009714141
102	0x3e8e3160	0.27772045
103	0x3e077fb5	0.1323231
104	0x3df977db	0.12181064
105	0x3defc006	0.117065474
106	0x3e2dec0e	0.16984579
107	0x3e3333c9	0.17500223
108	0x3d97c1d4	0.07410017
109	0xbca879fd	-0.020565981
110	0x3c98e05a	0.018661667
111	0x3c42055a	0.011842096
112	0x3d5b742b	0.053577583
113	0x3e1fb944	0.15598017
114	0x3e890015	0.26757875
115	0x3e2fd58c	0.17171305
116	0x3dca68bf	0.0988326
117	0xbc26ea53	-0.010187703
118	0x3e72b1b1	0.23700596
119	0x3e8a3e2a	0.27000552
120	0xbda564a8	-0.08075839
121	0x3b9dc73f	0.0048150118
122	0xbcebdbca	-0.028791327
123	0x3e394dd9	0.18096103
124	0x3e79739b	0.24360506
125	0x3e564ffb	0.20928948
126	0x3e00abdf	0.12565564
127	0x3e5b21b2	0.21399572
128	0x3e2cafe3	0.1686397
129	0x3e14221c	0.14466137
130	0x3e1834fc	0.14863962
131	0x3e1c4fab	0.15264766
132	0xbe180703	-0.14846425
133	0x3e2146eb	0.1574971
134	0xbc053b92	-0.008131878
135	0x3e2c36bc	0.16817755
136	0x3dfebaa1	0.124379404
137	0x3e1d4207	0.15357219
138	0x3e6c9dd3	0.2310708
139	0x3dd658fd	0.10466192
140	0x3e57cd72	0.21074465
141	0x3e3848f4	0.1799658
142	0x3c69fd80	0.0142816305
143	0x3ca09109	0.019600408
144	0xbce0e602	-0.027453426
145	0x3ddd7824	0.10813931
146	0x3e073517	0.13203846
147	0x3d346569	0.044042025
148	0x3e139555	0.14412434
149	0x3dbc638e	0.09198676
150	0x3d8e030e	0.069341764
151	0x3db7a345	0.08966688
152	0xbd6fcc30	-0.058544338
153	0xbb95461a	-0.004555476
154	0x3e19e202	0.15027621
155	0x3cef34c2	0.029199962
156	0x3da44308	0.08020598
157	0x3d3824fc	0.044957146
158	0x3da3d094	0.079987675
159	0xbb875e9f	-0.0041311528
160	0xbd80cfed	-0.06289659
161	0xbd057b49	-0.032588277
162	0xbbdbc9d6	-0.0067074103
163	0x3da9ba3b	0.08287474
164	0x3ba48949	0.0050212485
165	0x3d348b19	0.044077966
166	0x3e57c3c2	0.2107077
167	0x3daa2e48	0.08309609
168	0x3e281fb6	0.16418347
169	0x3e001d44	0.12511164
170	0x3d2c9f48	0.04214409
171	0x3e22dbc5	0.15904148
172	0x3deb6a11	0.1149484
173	0x3e85d749	0.26140812
174	0x3c4d092a	0.012514392
175	0x3e8c7161	0.2743025
176	0x3e255bcf	0.16148303
177	0x3d3bddb3	0.045865726
178	0x3e8911d8	0.26771426
179	0x3c24c28b	0.010056148
180	0x3e539b58	0.20664728
181	0x3d68512b	0.056718033
182	0x3e605ce9	0.21910442
183	0x3e0cae93	0.1373847
184	0x3d3020dd	0.04300009
185	0x3e8801ba	0.26563817
186	0x3df8247b	0.12116333
187	0x3dac2e24	0.08407238
188	0x3e703e6a	0.23461309
189	0x3e4c33a3	0.19941573
190	0x3cf7d70c	0.03025391
191	0x3d008542	0.031377085
192	0x3d94a416	0.072578594
193	0x3e4495b8	0.19197738
194	0xbbc51a45	-0.0060150945
195	0x3d313f51	0.043273274
196	0xbce504d8	-0.027956411
197	0x3e035fb5	0.12829478
198	0x3d374987	0.044747856
199	0xbc9375af	-0.018000452
200	0x3e48ab25	0.19596536
201	0x3e5e37b8	0.21700943
202	0x3e5f1523	0.21785407
203	0x3d19bbf9	0.03753278
204	0x3e5cfdbf	0.21581171
205	0xbdbabf59	-0.09118528
206	0x3daf4155	0.08557383
207	0x3de754bc	0.11295459
208	0xbd1b4b1e	-0.037913434
209	0x3c2695e1	0.01016757
210	0x3dc88cdf	0.09792494
211	0x3e6e2eab	0.2325999
212	0x3df8a756	0.12141292
213	0xbdf77487	-0.12082773
214	0x3e0edd9a	0.13951722
215	0x3cb613b7	0.022226198
216	0x3d400757	0.046882
217	0xbd77c29e	-0.060488336
218	0x3c315f79	0.010825985
219	0xbd12d1de	-0.035844676
220	0x3e48c4a3	0.19606261
221	0xbd696d40	-0.056988955
222	0x3def05b4	0.1167101
223	0x3e6ff72c	0.23434132
224	0xbcba74bf	-0.022760747
225	0x3e73122f	0.23737405
226	0x3d2cf8ca	0.04222945
227	0x3e55c03c	0.20874113
228	0x3e228813	0.1587222
229	0xbca17a62	-0.019711677
230	0x3dfe6075	0.124207415
231	0x3dcaccfc	0.09902379
232	0x3d5c9ce6	0.053860568
233	0xbc9f9388	-0.019479528
234	0x3c16245e	0.009163944
235	0x3dd169e9	0.10225279
236	0x3db93001	0.09042359
237	0x3e902521	0.28153327
238	0x3e66d060	0.22540426
239	0x3e374c81	0.17900278
240	0xbd0f71d0	-0.03502065
241	0x3dd0edbd	0.10201595
242	0x3dc883f1	0.09790791
243	0x3d12b969	0.035821352
244	0x3e440531	0.19142605
245	0x3da72e51	0.08163131
246	0x3e0d0d35	0.1377457
247	0x3e6a3ec8	0.22875512
248	0x3e7e389e	0.24826285
249	0x3dccf9cb	0.10008582
250	0x3d6a501f	0.057205316
251	0x3dfea05e	0.12432931
252	0x3d188772	0.037238546
253	0x3dc9cfcc	0.09854087
254	0x3e6fea4d	0.23429222
255	0x3e139ebf	0.14416026

StatefulPartitionedCall/sequential_1/dense_1/BiasAdd/ReadVariableOp:0 f4 [128]
0	0x3df820f9	0.12115664
1	0x3dfbeae0	0.12300658
2	0x3ded76f4	0.11594954
3	0x3e0db4b5	0.13838466
4	0xbc986281	-0.018601658
5	0x3dc9d72e	0.098554954
6	0x3e0be3c0	0.13661098
7	0x3e1849a3	0.1487184
8	0x3e0e21a5	0.13880022
9	0x3e148d67	0.14507066
10	0x3e177b83	0.1479321
11	0x3e00b192	0.12567738
12	0x3e145d9f	0.14488839
13	0x3e1d8d98	0.15386045
14	0x3ded40c1	0.115846165
15	0x3de56e81	0.112027176
16	0x3e046834	0.12930375
17	0x3ded5cfa	0.115899995
18	0x3de6746a	0.11252673
19	0x3e0b6f46	0.13616666
20	0x3e1280de	0.14306971
21	0x3e0ddce4	0.13853794
22	0x3df4feb7	0.119626455
23	0x3e191768	0.14950335
24	0x3df95102	0.12173654
25	0x3e0c7dd4	0.13719875
26	0x3dfdb4e3	0.12388017
27	0x3e05aabb	0.1305341
28	0x3e1a8f95	0.15093835
29	0x3e1137b9	0.14181413
30	0x3e182f22	0.1486173
31	0x3dcb8b43	0.099386714
32	0x3dd7912d	0.10525737
33	0x3dee521e	0.11636756
34	0x3e1a9f84	0.15099913
35	0x3dec0f8b	0.11526402
36	0x3e019963	0.12656169
37	0x3de82566	0.11335258
38	0x3e0ca116	0.13733324
39	0x3df066fa	0.11738391
40	0x3dec0db6	0.11526053
41	0x3de959a7	0.11394053
42	0x3e0aa1e8	0.13538325
43	0x3e0de507	0.13856898
44	0x3e0722b0	0.13196826
45	0x3e06ca46	0.13163099
46	0x3df6cded	0.12050996
47	0x3e161a39	0.1465844
48	0x3df9ffb6	0.12206976
49	0x3dbd2533	0.09235611
50	0x3e0e7a55	0.13913853
51	0x3e019ca5	0.12657411
52	0x3e04220a	0.1290361
53	0x3df75aff	0.12077903
54	0x3dff5810	0.124679685
55	0x3e1172e8	0.1420399
56	0x3e1abfb8	0.15112197
57	0x3e16d23d	0.14728637
58	0x3e141cf3	0.14464168
59	0x3ddfb45b	0.10923072
60	0x3e15d664	0.14632565
61	0x3ddca1d1	0.107730515
62	0x3de012fc	0.10941121
63	0x3e10d080	0.14142036
64	0x3db3a023	0.08770778
65	0x3debdf3a	0.115171865
66	0x3da905ea	0.08253081
67	0x3e177f54	0.14794666
68	0x3e03ee10	0.12883782
69	0x3e067df4	0.13133985
70	0x3dfebc33	0.1243824
71	0x3e0ed90a	0.13949981
72	0x3debeb6a	0.11519511
73	0x3e076899	0.13223495
74	0x3e202874	0.15640432
75	0x3e105455	0.1409467
76	0x3dfe68fc	0.12422368
77	0x3da8a12e	0.082338676
78	0x3e1873d2	0.14887932
79	0x3d640826	0.055671833
80	0x3dbec287	0.09314447
81	0x3e2169b8	0.15762985
82	0x3e081905	0.13290794
83	0x3dec8f11	0.11550725
84	0x3dbc9533	0.09208145
85	0x3d89fa5f	0.067372076
86	0x3dba29e9	0.09090025
87	0x3e1534a4	0.14570862
88	0x3e0ade02	0.13561252
89	0x3ddc629e	0.10760997
90	0x3de6b173	0.112643145
91	0x3de8f6df	0.11375212
92	0x3dee65a8	0.11640483
93	0x3dd6f2ad	0.104955055
94	0x3e155dff	0.14586638
95	0x3dfd4016	0.12365739
96	0x3e04c0c1	0.12964155
97	0x3e1a1cc1	0.15050031
98	0x3deed8c1	0.11662436
99	0x3e124431	0.14283825
100	0x3df99caf	0.12188088
101	0x3e12735d	0.1430182
102	0x3df0c2f2	0.11755933
103	0x3deb8987	0.11500841
104	0x3dd5077f	0.104018204
105	0x3e1324cb	0.14369504
106	0x3dee5160	0.11636615
107	0x3e0da61c	0.13832897
108	0x3e1051ce	0.14093706
109	0x3df3ecb0	0.11910379
110	0x3dc4feaa	0.09618886
111	0x3e186373	0.14881687
112	0x3e02efa3	0.12786727
113	0x3d8b6d3e	0.06807946
114	0x3e109494	0.14119178
115	0x3deaceb3	0.11465206
116	0x3dd25413	0.10269942
117	0x3dfe4181	0.12414838
118	0x3e023c62	0.12718347
119	0x3e11eaef	0.14249776
120	0x3df03597	0.117289715
121	0x3e0d7c49	0.13816942
122	0x3de372ba	0.11105867
123	0x3df61144	0.12015012
124	0x3e1930a0	0.14959955
125	0x3e023cc8	0.12718499
126	0x3dda1e7a	0.10650344
127	0x3e148d7f	0.14507101
