ONNX agents/durak_agent_master_4.onnx (onnx, 147456 bytes, 6 tensors)

StatefulPartitionedCall/sequential_1/dense_2_1/Cast/ReadVariableOp:0 f4 [128, 37]
0	0x3e0c56b4	0.1370495
1	0x3db34dbe	0.087550625
2	0xbaaa11b3	-0.0012975245
3	0x3a7b5646	0.0009587746
4	0x3cf12a0e	0.029438999
5	0x3d151f39	0.03640673
6	0x3e1d1e9f	0.15343712
7	0x3d87b953	0.06627145
8	0x3e3b00bc	0.18261999
9	0xbd6959f0	-0.056970537
10	0x3d4159d5	0.04720481
11	0xbd58db05	-0.05294325
12	0x3dc11657	0.09428089
13	0x3e671ff4	0.22570783
14	0xbbae94d9	-0.0053278026
15	0x3e25e235	0.16199572
16	0xbbdcb056	-0.006734888
17	0xbe0bc2de	-0.13648555
18	0x3e3111a0	0.1729188
19	0x3e552671	0.20815445
20	0x3d592949	0.05301789
21	0x3e54fe65	0.20800169
22	0xbd7489e3	-0.05970181
23	0xbd52d16c	-0.05146925
24	0xbcb38d95	-0.021918098
25	0x3e07145b	0.13191359
26	0xbdb516fc	-0.088422745
27	0x3e816c89	0.25278118
28	0x3e4db4fc	0.20088571
29	0xbcf62244	-0.030045636
30	0xbd470d68	-0.04859677
31	0x3c2555e6	0.010091281
32	0xbc3cd3b2	-0.0115250815
33	0x3de44348	0.111456454
34	0x3d09b39c	0.033618554
35	0xbd8045a1	-0.06263281
36	0x3d8b410c	0.06799516
37	0x3e3bbf57	0.18334709
38	0x3e6e2ce4	0.23259312
39	0x3e7551b6	0.23956951
40	0x3c687aea	0.014189461
41	0x3e2cf49f	0.1689019
42	0x3e630f43	0.2217379
43	0xbd4378f5	-0.047722775
44	0x3db26858	0.08711308
45	0x3d1e4b03	0.038645755
46	0x3e1742c7	0.14771567
47	0x3e4addec	0.19811219
48	0x3cc26645	0.023730407
49	0x3e4d45ef	0.20046209
50	0x3e2ca770	0.16860747
51	0xbc469414	-0.0121202655
52	0x3c4272a9	0.011868157
53	0xbdbb4b16	-0.09145181
54	0x3e59735d	0.21235414
55	0x3d946763	0.07246282
56	0xbd123fe2	-0.035705455
57	0x3e187e93	0.14892034
58	0xbdb1b3f9	-0.08676905
59	0x3c7bf48b	0.015378128
60	0x3d080556	0.033208214
61	0x3d2ae701	0.04172421
62	0x3d096909	0.033547435
63	0x3e19c59e	0.15016791
64	0x3e3b3fcb	0.18286054
65	0x3e447f33	0.19189148
66	0x3dec7310	0.11545384
67	0xbc76dd84	-0.015067462
68	0x3e7c1bd2	0.24619988
69	0x3d3c5f7a	0.04598949
70	0x3c99442e	0.018709268
71	0x3e29ca0e	0.16580984
72	0x3e69933e	0.22810075
73	0x3e8a154e	0.2696938
74	0x3e160af7	0.1465262
75	0x3e193fea	0.14965788
76	0x3da2bef2	0.07946576
77	0x3e04cb79	0.12968244
78	0x3e5324e1	0.20619537
79	0xbd6a9260	-0.0572685
80	0xbd2e87b1	-0.042609874
81	0x3dbf7edb	0.09350368
82	0xbe071c7e	-0.13194463
83	0x3e72c624	0.23708397
84	0xbdf00ed7	-0.117215805
85	0x3e20910e	0.15680334
86	0xbe05752b	-0.13032977
87	0x3e225349	0.15852083
88	0x3abe9a93	0.0014541916
89	0x3cc503cc	0.024049662
90	0xbd1aae40	-0.037763834
91	0xbc57382a	-0.013135949
92	0xbd92599c	-0.07145998
93	0x3c5d8bec	0.0135221295
94	0x3deeded7	0.11663597
95	0x3cceff2d	0.025268162
96	0x3e02054f	0.12697338
97	0x3e51075e	0.20412967
98	0x3c561720	0.013067037
99	0xbe0229b8	-0.12711227
100	0x3e53bbcb	0.20677106
101	0xbd23d014	-0.03999336
102	0x3e70b90e	0.23508093
103	0x3df86286	0.12128167
104	0xbdb8f827	-0.09031706
105	0xbd30f596	-0.04320296
106	0x3b7dfec2	0.0038756584
107	0x3d2b79d3	0.041864228
108	0x3d04f46a	0.032459654
109	0xbe16dd13	-0.1473277
110	0xbdca114b	-0.098665796
111	0x3e4fd699	0.20296706
112	0x3e7cfb2a	0.24705186
113	0x3e71fb10	0.23630929
114	0xbd92b2c6	-0.071630046
115	0xbddd88d3	-0.10817113
116	0x3dffa9bb	0.124835454
117	0xbd3f0d18	-0.046643347
118	0x3db2f0b6	0.08737318
119	0xbd7f00f0	-0.062256753
120	0x3d95c71e	0.07313369
121	0xbd7ea44e	-0.062168412
122	0x3e5f6b9f	0.21818398
123	0x3e45b865	0.19308622
124	0x3e2f8dcb	0.17143933
125	0x3e69455f	0.22780369
126	0x3e59f499	0.21284713
127	0xbcca726a	-0.02471276
128	0x3e2b07ba	0.16702166
129	0x3e7ffbf8	0.24998462
130	0x3c4370fe	0.011928795
131	0xbd853ad5	-0.06505362
132	0xbc5f915a	-0.013645494
133	0x3c1fa98e	0.009745015
134	0x3db1cd41	0.08681727
135	0x3e2d340e	0.16914389
136	0x3e4f65ad	0.2025363
137	0x3e7b4c77	0.24540888
138	0x3cb9651e	0.022631224
139	0x3e333aab	0.17502849
140	0x3e2d354c	0.16914862
141	0xbd4dbb12	-0.050227232
142	0x3e81fb65	0.2538711
143	0x3dd744f6	0.105112
144	0x3d385a8f	0.04500824
145	0x3e0ce22a	0.1375815
146	0x3d7c6e54	0.061628655
147	0x3c8da3e4	0.017290063
148	0xbcbd54e0	-0.02311176
149	0xbd80bd3d	-0.06286094
150	0xbd7be295	-0.061495382
151	0x3e56e011	0.20983912
152	0x3e002698	0.12514722
153	0x3d9b8f52	0.075956956
154	0x3e2b8629	0.16750397
155	0x3de612ea	0.11234076
156	0x3e5e8ee0	0.2173419
157	0x3d77f6ab	0.060537975
158	0x3e3f2488	0.1866628
159	0xbca1cecd	-0.01975193
160	0x3e66d850	0.22543454
161	0x3d8b1fd8	0.06793183
162	0xbda9abbd	-0.082847096
163	0xbc6abac4	-0.014326755
164	0x3e314964	0.17313153
165	0x3e11dd9b	0.14244692
166	0xbc3cc29a	-0.011521006
167	0x3bc4a3fe	0.0060009947
168	0xbd83c4f2	-0.06434049
169	0x3df1dcbb	0.11809679
170	0x3e34bdf2	0.17650583
171	0xbc2e29e8	-0.010630108
172	0x3e21306c	0.15741128
173	0x3e8e6679	0.27812555
174	0xbbe47bf7	-0.0069727856
175	0x3da86ec3	0.08224251
176	0x3de5417d	0.111941315
177	0xbdc52d57	-0.096277885
178	0xbde8b28b	-0.11362179
179	0x3e2247b8	0.15847671
180	0xbdfcfe0b	-0.12353142
181	0xbd418431	-0.04724521
182	0x3e52f436	0.20600972
183	0x3dd93872	0.10606469
184	0xbd9c5242	-0.07632877
185	0x3dbbf214	0.09177032
186	0x3e83faeb	0.25777373
187	0x3e7deda7	0.24797688
188	0x3d9e4c55	0.07729403
189	0x3dfba2db	0.122869216
190	0x3e511e49	0.20421709
191	0xbd82e597	-0.06391447
192	0x3e455c2b	0.1927344
193	0x3d6517c3	0.055930864
194	0x3e5a7930	0.21335292
195	0x3e04e896	0.1297935
196	0x3ccb7a00	0.024838448
197	0x3d6ba687	0.05753186
198	0x3e1a95e9	0.15096249
199	0x3da2746e	0.079323635
200	0x3b35aca4	0.002772131
201	0xbd4eda37	-0.050501075
202	0x3e53141a	0.20613137
203	0xbd4ed3df	-0.050495025
204	0x3dfdd074	0.12393275
205	0x3e8e7883	0.27826318
206	0x3e02785f	0.1274123
207	0x3e0943e8	0.1340481
208	0x3db63cbc	0.08898303
209	0xbc79d1ff	-0.015247821
210	0xbd34f4a8	-0.044178635
211	0x3d3768ff	0.044777866
212	0x3e1d1a56	0.15342078
213	0x3d924af9	0.07143206
214	0xbdc19618	-0.09452456
215	0xbc4a4af1	-0.012346969
216	0x3d907292	0.070531026
217	0x3e3cd135	0.18439181
218	0x3c7894ee	0.015172226
219	0xbd8a3f3c	-0.06750342
220	0x3e7b69b8	0.24552047
221	0x3e6ebac2	0.2331343
222	0x3d8fff96	0.07031171
223	0x3e78a425	0.24281366
224	0xbc905419	-0.017618226
225	0xbd9f634b	-0.077826105
226	0xbdb26d39	-0.08712239
227	0x3dab8788	0.0837546
228	0x3e8ec28f	0.2788281
229	0xbde1496b	-0.110003315
230	0xbdb699ba	-0.0891604
231	0x3e6370c0	0.2221098
232	0x3d348fab	0.044082325
233	0x3e851ade	0.2599706
234	0x3e4c4169	0.19946827
235	0x3e2343d7	0.15943848
236	0x3e0d7791	0.13815142
237	0x3e1f1df3	0.15538768
238	0x3d529413	0.051410746
239	0x3cbff30f	0.023431329
240	0x3e20a002	0.15686038
241	0x3dee2112	0.116274014
242	0x3e5922be	0.2120466
243	0xbdb89054	-0.090119034
244	0x3da81ced	0.08208642
245	0x3e37d5fe	0.17952725
246	0x3e8280b6	0.25488824
247	0xbdde4c75	-0.10854427
248	0x3d812b85	0.06307129
249	0x3dd2970a	0.10282715
250	0x3e384487	0.17994891
251	0xbb908018	-0.004409801
252	0x3c70158f	0.0146535775
253	0x3e84b9c1	0.2592297
254	0x3d5d82f0	0.05407995
255	0xbda64b57	-0.08119839

StatefulPartitionedCall/sequential_1/dense_2_1/BiasAdd/ReadVariableOp:0 f4 [37]
0	0x3d8667c5	0.06562761
1	0x3d5fe7e7	0.05466452
2	0x3d92660d	0.07148371
3	0x3d8db94e	0.0692011
4	0x3d215d7a	0.039395787
5	0x3d8ef006	0.069793746
6	0x3d8b986d	0.06816182
7	0x3d8fae8d	0.07015715
8	0x3d8921c3	0.06695893
9	0x3d7afdf2	0.061277337
10	0x3d878b51	0.06618369
11	0x3d68971e	0.05678474
12	0x3c897df7	0.016783698
13	0x3d7d0ae0	0.06177795
14	0x3dabdd9e	0.083918795
15	0x3dae0125	0.08496312
16	0x3d58a396	0.052890383
17	0x3d339384	0.043841854
18	0x3d724f06	0.059157394
19	0x3d747c55	0.059688885
20	0x3d9224d7	0.07135933
21	0x3da20c58	0.07912511
22	0x3d8f6ef1	0.07003582
23	0x3d897e5c	0.06713554
24	0x3d93d619	0.0721857
25	0x3d85c8fd	0.06532476
26	0x3d3cf622	0.046133168
27	0x3da68dca	0.08132513
28	0x3d8da4fd	0.06916235
29	0x3d5d8b5f	0.054087993
30	0x3d78a34b	0.060702603
31	0x3d870e44	0.06594518
32	0x3cfdcf0a	0.030982513
33	0x3d54c785	0.05194809
34	0x3d7f7ec8	0.062376767
35	0x3d6f6810	0.05844885
36	0x3dc72340	0.0972352

StatefulPartitionedCall/sequential_1/dense_1_2/Cast/ReadVariableOp:0 f4 [128, 128]
0	0x3d339285	0.043840904
1	0x3e6c0b1d	0.23051114
2	0xba8a0d08	-0.0010532448
3	0x3e679732	0.2261627
4	0x3e2d0eca	0.16900173
5	0xbd941e61	-0.07232357
6	0x3e601649	0.21883501
7	0x3d95e148	0.073183596
8	0x3e18e10a	0.14929596
9	0xbd000c9d	-0.03126203
10	0xbd8b2783	-0.06794646
11	0xbcdcdb0c	-0.026959918
12	0x3d42dcd4	0.04757388
13	0x3de55366	0.111975476
14	0x3d6993b9	0.057025645
15	0x3da18850	0.07887328
16	0x3e4997f8	0.19686878
17	0xbc98131d	-0.018563801
18	0x3df6e4ff	0.12055396
19	0xbd9e8960	-0.07741046
20	0x3e11cd6e	0.14238521
21	0xbbd973e2	-0.0066361288
22	0x3c974f03	0.018470293
23	0xbce45173	-0.02787087
24	0x3e5df7a3	0.21676497
25	0x3def5568	0.11686212
26	0x3e08bfee	0.13354465
27	0x3c30d849	0.010793754
28	0xbc198621	-0.009370358
29	0x3e2917d7	0.16513
30	0x3ce13d9e	0.027495202
31	0x3e82a2d6	0.2551486
32	0x3cd421be	0.025894996
33	0x3e7fff36	0.24999699
34	0xbc01d99f	-0.00792542
35	0xbc1f27eb	-0.009714107
36	0xbd4d2cb3	-0.050091457
37	0x3dd41c50	0.10356963
38	0x3e2a3ffb	0.16625969
39	0x3e068ef0	0.13140464
40	0xbcc46da5	-0.023978064
41	0xbd3a5af2	-0.04549689
42	0x3dd2fc81	0.103020675
43	0x3e4fd8ca	0.20297542
44	0x3df0665b	0.11738273
45	0x3d6ec0a9	0.058289204
46	0xbdbb9818	-0.09159869
47	0x3b47f6e7	0.0030512155
48	0x3e1ed1d3	0.15509729
49	0x3e476092	0.19470432
50	0xbd1c6228	-0.038179547
51	0x3d180f55	0.037123997
52	0x3d3250fe	0.04353427
53	0x3da878f0	0.08226192
54	0x3e6c7aa4	0.23093659
55	0x3db86d2f	0.090052
56	0x3dbfd9d2	0.09367718
57	0x3e3f2050	0.1866467
58	0x3b0f1b5b	0.0021836373
59	0x3ce12664	0.027484126
60	0xbcb02c9e	-0.02150565
61	0x3e03b692	0.12862614
62	0x3e28a2e8	0.16468394
63	0xbd7585ad	-0.059941936
64	0x3c86a16f	0.0164344
65	0x3d8cf709	0.06883056
66	0x3d0c2a34	0.034219936
67	0x3cd7beb9	0.02633606
68	0x3bf66f77	0.007520612
69	0xbbafc41b	-0.0053639538
70	0x3e2fedea	0.17180601
71	0x3e32ec58	0.1747297
72	0x3e0023ef	0.12513708
73	0x3e0c93f1	0.1372831
74	0x3e2456db	0.16048758
75	0x3e025040	0.12725925
76	0xbcc51829	-0.024059372
77	0x3daaf9dd	0.08348439
78	0xbc7032ac	-0.014660519
79	0xbc6a3b98	-0.014296435
80	0x3d0ed281	0.03486872
81	0x3d850d09	0.06496627
82	0xbe099595	-0.13435967
83	0x3d7b4f21	0.06135476
84	0x3d5366c5	0.05161168
85	0xbc1fdea5	-0.009757672
86	0x3db723d6	0.08942382
87	0xbd8e5eb7	-0.06951659
88	0x3e25aae8	0.16178477
89	0x3d7db0fa	0.061936356
90	0xbd9ec225	-0.07751874
91	0x3d536856	0.051613174
92	0x3e5b7fbe	0.21435449
93	0x3d9b0a1c	0.075702876
94	0x3e19e643	0.15029244
95	0xbd94b06c	-0.07260212
96	0x3d821d7e	0.063532814
97	0x3e637d1e	0.22215697
98	0xbd0360ea	-0.032074846
99	0x3e58cb04	0.21171194
100	0xbd179efc	-0.037016854
101	0x3e253747	0.16134368
102	0x3c96221a	0.018326808
103	0x3e0232ed	0.12714739
104	0x3e1c6977	0.15274607
105	0xbd9a717c	-0.07541177
106	0xbbba852c	-0.005692145
107	0xbdecfa9a	-0.11571236
108	0xbc498c1c	-0.012301471
109	0xbe041292	-0.12897709
110	0xbd0de868	-0.034645468
111	0x3e0602cf	0.13087009
112	0x3e08aaeb	0.1334645
113	0x3e003e06	0.1252366
114	0x3e04f7f8	0.12985218
115	0x3d1cc87b	0.03827713
116	0x3cfa7cbd	0.030577058
117	0x3d170b97	0.036876287
118	0xbd1a0eba	-0.0376117
119	0x3d4d5d09	0.050137553
120	0xbe0a9fc2	-0.13537505
121	0x3e142861	0.14468528
122	0xbdd26e6c	-0.102749676
123	0x3e15697c	0.1459102
124	0x3d326b46	0.043559335
125	0x3e45aebe	0.1930494
126	0x3e3d58f1	0.1849096
127	0xbaf3b409	-0.0018593083
128	0xbddbacc5	-0.107263125
129	0xbd33a51a	-0.043858625
130	0x3c1e4912	0.009660976
131	0x3e3a21a6	0.18176898
132	0x3e24d2d0	0.16096044
133	0x3db27955	0.087145485
134	0xbcc71a81	-0.02430463
135	0xbe0b47be	-0.13601586
136	0xbce4523f	-0.02787125
137	0x3d658810	0.056037962
138	0x3e2a7245	0.16645153
139	0x3e1fc016	0.15600619
140	0x3e4de0c6	0.20105276
141	0x3d2b85d2	0.041875668
142	0xbdcf5a9d	-0.10124705
143	0x3c85f6fc	0.016353123
144	0x3dcc9ef9	0.09991259
145	0x3d998e44	0.07497838
146	0x3c5f7c2f	0.0136404475
147	0x3da0cf6a	0.07852061
148	0x3c873a3b	0.016507259
149	0xbcc6ae4b	-0.024253031
150	0x3b6a8611	0.0035785476
151	0xbc0eb45f	-0.008709996
152	0x3dc7b8cb	0.09752043
153	0x3d002b9e	0.031291597
154	0x3e396b37	0.18107305
155	0x3d43d7ee	0.04781335
156	0x3dc208bd	0.09474323
157	0x3d88415c	0.06653091
158	0x3d07b101	0.03312779
159	0x3e73349a	0.23750535
160	0x3da0ab12	0.07845129
161	0x3dba1320	0.09085679
162	0x3e3abd2f	0.1823623
163	0x3da3a0c2	0.079896465
164	0xbdf1a443	-0.117989086
165	0xbd578567	-0.052617457
166	0x3d520eef	0.051283773
167	0x3d9387bf	0.07203626
168	0x3dda93d7	0.106727295
169	0x3d222431	0.039585296
170	0x3d76502d	0.060135055
171	0xbd57ef83	-0.05271865
172	0xbdb857af	-0.09001099
173	0x3de2d840	0.11076403
174	0x3d941f83	0.07232573
175	0x3e65a0bc	0.22424597
176	0x3d6a626a	0.05722276
177	0x3c1a93f7	0.009434692
178	0x3d8fa65f	0.07014155
179	0x3e29e5a8	0.16591513
180	0x3dfe75ad	0.124247886
181	0xbd89949c	-0.06717798
182	0x3e238477	0.159685
183	0x3e557cef	0.2084844
184	0x3dd8c44c	0.10584316
185	0x3d86fa32	0.0659069
186	0x3dc905c6	0.09815554
187	0x3df3bb69	0.1190098
188	0xbdb5258b	-0.088450514
189	0x3d67ad76	0.05656191
190	0x3e2d0ace	0.16898653
191	0x3db269a4	0.087115556
192	0x3d55f96c	0.05223982
193	0x3e250f3c	0.16119093
194	0xbd6d95d4	-0.058004215
195	0x3e3d7bfb	0.18504326
196	0x3e4d2412	0.20033291
197	0xbdbb7a76	-0.09154217
198	0xbded71d9	-0.1159398
199	0x3c41ecaa	0.01183621
200	0xbaee72ba	-0.001819215
201	0xbdb4c04b	-0.088257395
202	0x3e6d28c1	0.23160078
203	0xbe0ef5cc	-0.13960952
204	0x3c6e1fc7	0.0145339435
205	0x3db2e7fa	0.08735652
206	0xbe05f964	-0.13083416
207	0x3cbf9716	0.023387473
208	0x3dcda0b9	0.10040421
209	0x3dabe180	0.0839262
210	0xbd2dec58	-0.042461723
211	0x3e63932d	0.22224112
212	0x3d89019d	0.06689761
213	0xbd6be4da	-0.057591297
214	0x3dc23411	0.09482587
215	0x3e0bc790	0.13650346
216	0xbd4e0018	-0.05029306
217	0x3e441b44	0.19151026
218	0xbdccf7e8	-0.10008222
219	0xbdb9e6a0	-0.09077191
220	0x3e142b76	0.14469704
221	0x3e023ce1	0.12718536
222	0x3db8d6e1	0.0902536
223	0x3e114b07	0.14188777
224	0x3e66ef39	0.22552194
225	0xbcc331df	-0.023827491
226	0x3e08ef23	0.13372473
227	0x3e6314c8	0.22175896
228	0xbddacc4a	-0.10683496
229	0xbc96ffea	-0.018432576
230	0xbdab7564	-0.08372
231	0x3e3c8b57	0.18412529
232	0x3ddce524	0.107858926
233	0x3d9dbe13	0.077022694
234	0xbdda77b1	-0.106673606
235	0xbd8f7f39	-0.07006688
236	0x3d488f9a	0.048965074
237	0xbe1a858f	-0.15090011
238	0x3da702ed	0.08154855
239	0x3d8543f3	0.06507101
240	0xbd6147d3	-0.055000138
241	0x3e04bb63	0.12962107
242	0x3d828acc	0.0637413
243	0x3e124c0d	0.14286824
244	0x3dbee698	0.09321326
245	0x3e045b0e	0.1292536
246	0x3e4f240e	0.20228598
247	0xbb85e547	-0.00408617
248	0xbd4dfbd4	-0.05028899
249	0x3e3d9ebb	0.18517582
250	0x3e2833e1	0.1642604
251	0xbe013735	-0.12618716
252	0x3da00de9	0.07815153
253	0x3d68cec8	0.056837827
254	0x3e1dbddb	0.15404455
255	0xbd6a4808	-0.0571976

StatefulPartitionedCall/sequential_1/dense_1_2/BiasAdd/ReadVariableOp:0 f4 [128]
0	0x3ccf2d16	0.025290053
1	0x3dd211c4	0.10257295
2	0x3c14dbdd	0.009085623
3	0x3dd6c9f5	0.10487739
4	0x3d494d27	0.049145844
5	0x3db55bca	0.08855398
6	0x3db9edce	0.09078561
7	0xba0bfadc	-0.000533981
8	0xbb0bdaf2	-0.0021340218
9	0x3dbb0143	0.091311
10	0x3d665dd4	0.056241825
11	0x3db97426	0.09055357
12	0x3dc9d674	0.09855357
13	0x3d77fe86	0.060545467
14	0xbca0ba24	-0.019620009
15	0x3db72784	0.08943084
16	0x3dccfbd7	0.10008972
17	0x3da0bf88	0.07849032
18	0x3de6bc3f	0.11266374
19	0x3d98bd80	0.07458019
20	0xbc9362c1	-0.017991425
21	0xbcbadcf3	-0.022810435
22	0x3ddcbc0e	0.10778056
23	0x3d72cff3	0.059280347
24	0x3d9c50fb	0.07632633
25	0x3dc24e69	0.09487612
26	0x3d2b2ec8	0.04179266
27	0xbcaf224e	-0.021378662
28	0x3dbfeda2	0.09371497
29	0x3d5cfd14	0.05395229
30	0x3d9fe6d2	0.07807697
31	0x3dccb14c	0.09994754
32	0x3dbcb6ac	0.092145294
33	0x3ddfd8d0	0.109300256
34	0x3dd981ae	0.106204376
35	0x3d0cbfcf	0.03436261
36	0xbcc0296f	-0.023457257
37	0x3db11f2c	0.08648524
38	0x3dea3abc	0.11436984
39	0x3cac352e	0.021021452
40	0x3d8126bf	0.06306218
41	0x3d5939a5	0.05303349
42	0x3d733f55	0.05938657
43	0x3d570866	0.052498244
44	0x3d76e5f4	0.060277894
45	0xbbe5ac0d	-0.0070090354
46	0x3d83f536	0.06443255
47	0x3d9c7ddb	0.076411925
48	0x3dc8e5bf	0.098094456
49	0x3dbb8252	0.09155716
50	0x3d591af5	0.053004224
51	0x3c90b3b0	0.017663807
52	0x3d757704	0.059927955
53	0x3da03aa2	0.07823683
54	0x3d935c5f	0.07195353
55	0x3dcef264	0.10104826
56	0x3dd38c9a	0.10329552
57	0x3d83604e	0.06414853
58	0x3de496de	0.11161588
59	0x3deceae9	0.11568243
60	0x3d56e8ea	0.052468218
61	0x3d9b91b0	0.07596147
62	0x3df2420d	0.118290044
63	0x3ce0ff3e	0.027465459
64	0x3d2ccc90	0.042187274
65	0x3d3badf7	0.045820203
66	0x3d565e23	0.05233587
67	0x3d7ea61c	0.062170133
68	0x3db64199	0.088992305
69	0xbc01f49c	-0.007931855
70	0x3d20d647	0.03926685
71	0x3da49b7d	0.080374695
72	0x3dae13e6	0.08499889
73	0x3db54857	0.08851688
74	0x3dfd6e0c	0.123745054
75	0x3a38d769	0.00070511416
76	0x3ddd7dbc	0.108149976
77	0x3cecb1d5	0.02889339
78	0x3bbd844b	0.005783593
79	0x3db174bb	0.08664843
80	0x3d64f51b	0.055897813
81	0x3dc0a540	0.09406519
82	0x3cd4fd98	0.02599983
83	0x3dbf57a8	0.09342891
84	0x3def7d9e	0.116938815
85	0x3dd8bcfd	0.10582922
86	0x3d0d3d0a	0.03448204
87	0x3c7632eb	0.015026788
88	0x3de4001c	0.11132833
89	0x3cc00452	0.02343956
90	0xbc1347ce	-0.008989288
91	0x3d80c799	0.0628807
92	0x3da0559b	0.07828828
93	0x3d434d39	0.047681067
94	0x3dfe4b9d	0.12416766
95	0xbc6e7606	-0.014554506
96	0x3db8f774	0.09031573
97	0x3dee3357	0.11630886
98	0x3d1fd50c	0.039021537
99	0x3dcb2ae5	0.09920291
100	0xbc3f2773	-0.01166712
101	0x3dd7d51b	0.105386935
102	0x3d193776	0.037406407
103	0x3dcf496e	0.101214275
104	0x3dbb5903	0.09147837
105	0x3ce5b5b1	0.028040739
106	0x3bba2c5b	0.005681557
107	0xbb28462f	-0.0025676598
108	0x3dfef44e	0.12448941
109	0xbcaea5ab	-0.021319231
110	0x3da1d790	0.079024434
111	0x3d3e9bf8	0.046535462
112	0x3c8a0d44	0.016852029
113	0x3df0ca76	0.11757366
114	0x3c00539b	0.007832433
115	0x3d9d8613	0.07691588
116	0xbcaeacc5	-0.021322617
117	0x3d873bca	0.06603201
118	0x3db736e0	0.089460135
119	0xbc34a376	-0.0110253
120	0x386fc840	5.7168538e-05
121	0x3d825a59	0.06364889
122	0xbc9a1c5a	-0.018812347
123	0x3c89a8f3	0.016804194
124	0x3dc93cd3	0.098260544
125	0x3dea2f52	0.11434807
126	0x3da4612e	0.08026348
127	0x3dbf2d7c	0.09334847

StatefulPartitionedCall/sequential_1/dense_1/Cast/ReadVariableOp:0 f4 [116, 128]
0	0x3da16c5e	0.078819975
1	0x3db37483	0.08762457
2	0x3c57531a	0.013142372
3	0x3cb6cbfc	0.022314064
4	0x3e6b6bb9	0.22990312
5	0x3df40c2a	0.119163826
6	0x3d45ddaf	0.048307117
7	0x3e16c833	0.14724807
8	0x3dd8aa79	0.1057939
9	0x3c704f3f	0.014667331
10	0x3d866d61	0.06563831
11	0x3e3ab5b7	0.18233381
12	0x3e1e2bc9	0.1544639
13	0x3e84c480	0.25931168
14	0x3e28e137	0.16492163
15	0x3d3f28e6	0.046669863
16	0x3e0c509f	0.1370263
17	0x3d9e05a5	0.0771592
18	0xbc9fa0be	-0.019485828
19	0x3de452e4	0.11148623
20	0x3e8afbde	0.27145284
21	0x3dadc4f3	0.08484831
22	0x3dc8c1d6	0.09802596
23	0x3cf77779	0.030208336
24	0x3e543523	0.20723395
25	0x3e8ca8f4	0.2747265
26	0x3d4f341a	0.050586797
27	0xbca7abab	-0.0204676
28	0x3c59a45b	0.013283814
29	0x3e134749	0.14382662
30	0x3e2b0733	0.16701965
31	0x3d1f6a50	0.038919747
32	0x3e58e909	0.21182646
33	0x3e591577	0.21199594
34	0x3d9b4a5d	0.07582543
35	0xbbd4ea77	-0.006497677
36	0x3db0404f	0.08606016
37	0x3e20e242	0.1571131
38	0x3b6e6730	0.0036377423
39	0x3d139892	0.036034174
40	0x3e444d1d	0.19170041
41	0x3e315982	0.17319301
42	0x3dd9dc32	0.10637702
43	0x3e96b34a	0.29433662
44	0xbae42ed4	-0.0017408975
45	0x3c54b7ca	0.012983272
46	0x3e219471	0.15779282
47	0x3e51d1fa	0.20490256
48	0x3e9d0e12	0.30674797
49	0x3de7337e	0.11289118
50	0x3d3b8beb	0.045787733
51	0x3e8fd772	0.2809406
52	0x3e408840	0.18801975
53	0x3e8bae63	0.27281484
54	0x3e97a6b9	0.29619387
55	0x3e48f446	0.19624433
56	0x3dbe2d50	0.092859864
57	0x3bfc9ceb	0.0077091358
58	0xbcd795c6	-0.026316535
59	0x3e5b0c55	0.21391423
60	0x3b06a94b	0.0020547684
61	0x3e45133e	0.19245622
62	0xbc0ee9ee	-0.008722765
63	0x3e42b71b	0.19015162
64	0x3e7a9574	0.24471074
65	0x3e8c3902	0.27387244
66	0x3e017f08	0.12646115
67	0x3d988395	0.07446972
68	0x3e088f08	0.13335812
69	0x3cf37a5a	0.029721428
70	0x3e5d62bf	0.216197
71	0x3e8600e2	0.2617255
72	0x3debc8fa	0.115129426
73	0x3e1f0805	0.15530403
74	0x3ea113fb	0.31460556
75	0x3d938d10	0.0720464
76	0x3e0af20b	0.13568895
77	0x3dc9e465	0.09858016
78	0x3e965cda	0.29367715
79	0x3dce8079	0.10083098
80	0x3dcae9eb	0.099078976
81	0x3dee2c98	0.11629599
82	0x3e3a9a44	0.1822291
83	0x3daf0db0	0.085475326
84	0x3e5e915f	0.21735142
85	0x3e849e34	0.2590195
86	0x3d9d82c5	0.07690958
87	0x3e50a8bc	0.20376867
88	0x3e93a5d3	0.2883745
89	0x3e956efb	0.29186234
90	0x3dcdb9a5	0.100451745
91	0x3dbfd3f6	0.093666
92	0x3ca4fdeb	0.020140609
93	0x3e84d6ee	0.25945228
94	0x3e739e73	0.23790912
95	0xbc406ae5	-0.011744236
96	0x3e3652fc	0.17805094
97	0x3e81fb3d	0.25386992
98	0x3e6d8ee4	0.2319904
99	0x3e3d9955	0.18515523
100	0x3e1db58d	0.15401287
101	0x3d015338	0.031573504
102	0x3ddb54c0	0.10709524
103	0x3db7de9b	0.089780055
104	0x3dd1497e	0.10219096
105	0x3e6b0419	0.22950782
106	0x3be6b1bf	0.007040232
107	0x3d729e45	0.05923297
108	0x3e2e468f	0.17019103
109	0x3e26485d	0.16238542
110	0x3e1cd5c6	0.15315923
111	0x3e3330c9	0.17499079
112	0x3e8d09b8	0.27546477
113	0x3d04774b	0.03234033
114	0x3e0360a4	0.12829834
115	0x3d2381fe	0.039918892
116	0x3cd0eb65	0.02550287
117	0x3e5d204b	0.2159435
118	0x3e33262c	0.1749503
119	0x3e60518f	0.21906112
120	0x3c37b4c1	0.011212529
121	0x3d879987	0.0662108
122	0x3d24feab	0.040281933
123	0x3da914d1	0.082559235
124	0x3cfd34b6	0.030908924
125	0x3d3913f5	0.045185048
126	0x3e306752	0.17226914
127	0x3c21f69c	0.009885456
128	0x3dee7f6a	0.11645396
129	0xbd0f1900	-0.03493595
130	0x3e31276f	0.17300199
131	0x3d806918	0.06270045
132	0x3e7f05ee	0.24904606
133	0x3d697af7	0.057002034
134	0x3dc7f101	0.09762765
135	0xbabe9fe0	-0.0014543496
136	0x3e4892d9	0.19587268
137	0x3e566dca	0.20940319
138	0x3d189eea	0.037260927
139	0x3e5ed68a	0.21761528
140	0x3e8e5b2b	0.2780393
141	0x3e10b526	0.14131603
142	0xbc785294	-0.015156407
143	0x3e91cd41	0.2847691
144	0x3d366a46	0.044534944
145	0x3dc48527	0.09595709
146	0x3de78fad	0.11306701
147	0x3e70ae61	0.2350402
148	0xbca11a50	-0.019665867
149	0x3cd70151	0.026245745
150	0x3e855724	0.26043046
151	0x3da11c26	0.07866697
152	0x3e1c67d9	0.1527399
153	0xba4d31be	-0.00078275416
154	0x3d757343	0.059924375
155	0x3e4b0fc2	0.1983023
156	0x3d7ba694	0.06143816
157	0x3e0da3bb	0.1383199
158	0x3e84471e	0.25835508
159	0x3e74cb8b	0.2390577
160	0x3e822141	0.25415996
161	0x3e961028	0.293092
162	0x3d4213d9	0.04738221
163	0x3e744041	0.23852636
164	0xbc7cf278	-0.015438668
165	0xbd2d923a	-0.04237578
166	0x3e14d8b0	0.14535785
167	0x3e0b255d	0.13588472
168	0x3e854cfd	0.260353
169	0x3b6b09ae	0.0035863924
170	0xbd06c217	-0.032899942
171	0xba8ded09	-0.0010828088
172	0x3e72d3f4	0.23713666
173	0x3e62781c	0.2211613
174	0x3cfabf5c	0.030608825
175	0x3e5ca96e	0.21549007
176	0x3e910553	0.28324375
177	0x3cc4187a	0.023937453
178	0x3e2421f5	0.16028579
179	0xbb8895c2	-0.004168243
180	0x3d559c4f	0.05215102
181	0x3b690890	0.0035558082
182	0x3e8a4931	0.27008966
183	0x3d46d18a	0.048539676
184	0x3dff20b1	0.12457407
185	0x3e1f10e9	0.15533794
186	0x3d98186f	0.07426535
187	0x3e6fe189	0.23425879
188	0x3df18499	0.11792869
189	0x3e82e01e	0.25561613
190	0x3dc43d5a	0.095820144
191	0x3dc2c805	0.09510807
192	0xbc12447d	-0.008927462
193	0x3cb2fb92	0.021848474
194	0x3e027081	0.1273823
195	0x3e932d6d	0.28745595
196	0x3df1e0dc	0.11810467
197	0x3c127440	0.008938849
198	0x3e30658f	0.17226242
199	0x3d8e284d	0.069412805
200	0x3dd1083d	0.102066495
201	0x3e858157	0.2607524
202	0x3c82dc72	0.015974257
203	0x3baf9ae8	0.0053590424
204	0x3e5bbd2d	0.21458884
205	0x3e0b74f5	0.13618834
206	0x3e629a5e	0.22129199
207	0x3da355ac	0.07975325
208	0xbd49eefa	-0.04930017
209	0x3d40d2c2	0.047075994
210	0x3e0d4d18	0.1379894
211	0x3e0eeab8	0.13956726
212	0x3e8091e5	0.2511131
213	0x3be4627f	0.0069697495
214	0x3e322fa5	0.17400987
215	0x3d8269c8	0.063678324
216	0x3d8872a9	0.06662495
217	0x3c70e81f	0.0147037795
218	0x3d93da8c	0.07219419
219	0x3dc0f62b	0.09421953
220	0x3e85d099	0.2613571
221	0x3e169967	0.14706956
222	0xbbe06f70	-0.006849222
223	0xbb437552	-0.0029824567
224	0x3e36a689	0.17836966
225	0x3e1aa1f6	0.15100846
226	0xbd19f406	-0.037586235
227	0x3e4fe826	0.20303401
228	0x3d0400e4	0.032227412
229	0x3e8b1b71	0.27169374
230	0x3e66d2da	0.22541371
231	0x3ce77009	0.028251665
232	0x3e843bd5	0.25826898
233	0x3e033d33	0.12816314
234	0x3e7ce326	0.24696025
235	0x3c8e7b10	0.017392665
236	0x3e8e40b0	0.27783728
237	0x3e134e9b	0.14385454
238	0x3e33a62c	0.17543858
239	0x3e79f2a4	0.24408966
240	0x3e490ead	0.19634505
241	0x3d4e563e	0.050375216
242	0xbd4d2ce8	-0.050091654
243	0x3e2372a7	0.15961705
244	0x3deda17c	0.11603066
245	0xbbb90c3f	-0.005647212
246	0x3e4979f3	0.19675426
247	0xbd7f1bf8	-0.062282532
248	0x3e4e1507	0.20125209
249	0x3e3efa08	0.18650067
250	0x3de6a824	0.11262539
251	0xbc07b08a	-0.008281836
252	0xbb1a7e0d	-0.0023573667
253	0x3d96d5f4	0.07365027
254	0xbc8dd065	-0.017311284
255	0x3e1c32d3	0.15253763

StatefulPartitionedCall/sequential_1/dense_1/BiasAdd/ReadVariableOp:0 f4 [128]
0	0x3e09892a	0.1343123
1	0x3de1dcc6	0.11028437
2	0x3e0305d5	0.12795193
3	0x3e10fbd7	0.1415857
4	0x3e06dbc7	0.13169776
5	0x3e08a301	0.13343431
6	0x3ded5f65	0.11590461
7	0x3d9b4083	0.07580664
8	0x3e06acb3	0.13151817
9	0x3e03da02	0.12876132
10	0x3e1d1356	0.15339407
11	0x3de830fb	0.11337467
12	0x3de4c210	0.11169827
13	0x3e08709f	0.13324212
14	0x3e0cc63d	0.13747497
15	0x3e0c98e3	0.13730197
16	0x3d03d8fe	0.03218936
17	0x3e0b1584	0.13582426
18	0x3dd10977	0.102068834
19	0x3e0604ea	0.13087812
20	0x3e0b42c0	0.13599682
21	0x3e1340dc	0.1438021
22	0x3e14302b	0.144715
23	0x3df43c6d	0.11925588
24	0x3e19d267	0.15021668
25	0x3df7e945	0.121050395
26	0x3dbabc73	0.09117975
27	0x3dd7915b	0.10525771
28	0x3de4790d	0.11155901
29	0x3da4dddc	0.08050129
30	0x3e177a06	0.14792642
31	0x3de8e3ce	0.11371575
32	0x3e0ca221	0.13733722
33	0x3e145215	0.14484437
34	0x3da2e380	0.079535484
35	0x3e009476	0.12556633
36	0x3ce417f0	0.027843446
37	0x3d990522	0.07471682
38	0x3e104167	0.14087449
39	0x3e0afdd1	0.13573386
40	0x3e116f79	0.1420268
41	0x3ddf92d2	0.109166756
42	0x3dac177c	0.08402917
43	0x3e145025	0.14483698
44	0x3dfe8d12	0.12429251
45	0x3e05c259	0.13062419
46	0x3df4d677	0.119549684
47	0x3dc80db0	0.09768236
48	0x3e11f038	0.14251792
49	0x3e1f5f45	0.15563686
50	0x3e0677fd	0.1313171
51	0x3e0bea2e	0.13663551
52	0x3e14ea52	0.14542511
53	0x3e085919	0.13315238
54	0x3e13a892	0.14419773
55	0x3e0b4d1a	0.1360363
56	0x3db06ce0	0.08614516
57	0x3dfffe72	0.124997035
58	0x3dff77b5	0.12474004
59	0x3e069e7a	0.13146392
60	0x3e13142d	0.14363165
61	0x3de9f98e	0.11424552
62	0x3e025e49	0.1273128
63	0x3e1073d0	0.14106679
64	0x3de4905a	0.111603454
65	0x3e0f7c05	0.14012153
66	0x3dc72360	0.09723544
67	0x3e0a837c	0.1352672
68	0x3dced69a	0.10099526
69	0x3e182cea	0.14860883
70	0x3d4720ad	0.048615146
71	0x3dfd26d0	0.123609185
72	0x3e120585	0.14259918
73	0x3e0bc72d	0.13650198
74	0x3e143a5c	0.14475387
75	0x3e136e62	0.14397576
76	0x3df88b56	0.12135951
77	0x3e05fdca	0.13085094
78	0x3e029b2f	0.1275451
79	0x3e06e11f	0.13171814
80	0x3e069a4d	0.13144799
81	0x3e02dd7a	0.12779799
82	0x3e05d408	0.13069165
83	0x3d51cc96	0.0512205
84	0x3e156dfb	0.14592735
85	0x3e014983	0.12625699
86	0x3e0393f9	0.12849416
87	0x3de5f570	0.11228454
88	0x3e0dfbc7	0.13865577
89	0x3e107ac7	0.14109336
90	0x3e0cec62	0.13762048
91	0x3d9ac4e6	0.07557087
92	0x3db072a3	0.08615615
93	0x3dffe849	0.12495477
94	0x3e202785	0.15640076
95	0x3e018d2f	0.12651514
96	0x3e09d66f	0.13460706
97	0x3de571ee	0.11203371
98	0x3dee2493	0.1162807
99	0x3dc9c2e2	0.09851624
100	0x3e176295	0.147837
101	0x3e1ccc7f	0.15312384
102	0x3e1e567b	0.15462677
103	0x3e14fc44	0.14549357
104	0x3e09e6d2	0.13466957
105	0x3dd743ac	0.10510954
106	0x3d9b814c	0.07593021
107	0x3e173273	0.14765339
108	0x3e0ca1fd	0.13733669
109	0x3e0b8350	0.1362431
110	0x3e016b14	0.12638503
111	0x3e1c0cf2	0.15239313
112	0x3e1ad3bd	0.15119834
113	0x3dfece7a	0.12441726
114	0x3df50fb3	0.11965885
115	0x3e0688b8	0.13138092
116	0x3e1f1a17	0.15537296
117	0x3e1559f7	0.145851
118	0x3dc14f87	0.09438997
119	0x3dd94d01	0.106103905
120	0x3e079777	0.13241373
121	0x3dab6844	0.083694965
122	0x3e4b32b6	0.19843563
123	0x3debcfa7	0.11514216
124	0x3e0755e4	0.13216358
125	0x3dee87e0	0.1164701
126	0x3dc273dd	0.094947554
127	0x3e0394ca	0.12849727
