ONNX agents/durak_agent_easy_4.onnx (onnx, 147454 bytes, 6 tensors)

StatefulPartitionedCall/sequential_1/dense_2_1/Cast/ReadVariableOp:0 f4 [128, 37]
00000000: b071 e3bd a315 213e 310f 313d 1b25 01be
00000010: 81bb dbbd a94a 623b f25b ea3c 2ff9 0dbe
00000020: e2b0 ee3d e9a0 bb3d 2fb9 bb3d 3889 a23c
00000030: 5e68 313d d366 e5bd 4065 91bc 916b 3a3c
00000040: 6833 fdbd ac8d 1ebc 27a2 463e b89f 0abe
00000050: 6e49 9ebd 92ea ac3d f891 c6bb 10d2 23bd
00000060: 1df8 ef3d 81fa 6d3d 0487 cfbd 58b7 a73d
00000070: a08f a3bd afba 373e 744f e73d 7a55 313e
00000080: be5a d73d b47c 433e 1460 15be 9555 df3d
00000090: dbed 503d 7e6e 36be 9bcc 763c cd8d 52bd
000000a0: 5236 8a3b 1ab9 433d 7733 2cbe 4316 26be
000000b0: 72f6 dc3c 8829 ef3d 9003 23be b796 0e3e
000000c0: bf59 0ebe 527f 89bb f975 803d 89ab dbbd
000000d0: 7919 debd 972c 483e 72ff d7bc e127 db3d
000000e0: ae41 073e ae70 32be 5212 10be 0b14 98bd
000000f0: 24c2 f33d 96b0 80bc a45d ad3c 37f2 f93c
00000100: 8948 073e de51 d6bc 6b07 83bd 31ea 31bd
00000110: ce9b 75bc 87c6 b2bd eb87 ff3d 26ed b23d
00000120: 6d7c 103d a702 fbbc 70af 053d 385e 3d3e
00000130: 2123 fbbd 6324 dbbd f092 d53c 468f 363e
00000140: 55cd 04be 729d 39bd 6e54 8d3d 6620 1cbe
00000150: 7597 23be 1763 b13d e80c 0bbe d52f 193e
00000160: 1ceb df3d 4645 a0bd d0bd dc3d 099c 483d
00000170: 6785 313e 60f4 fbbc 7edb 023e 19c1 e63d
00000180: e6f5 2fbc 4163 f83d a21c 8c3d 39aa 5a3d
00000190: 418f a03c aa86 aa3d f11a 183e 3501 003e
000001a0: 1321 1c3d 196b 0cbe ad41 2cbd c0f0 f8bd
000001b0: fb7c 393e 33e4 1abe fe0f 8e3d 3641 21be
000001c0: 90b0 0bbe 4aa6 28be 9f4a b83c d048 533d
000001d0: a8a6 3d3e 78df d23d 624e 8f3d c78e f03c
000001e0: 2716 2dbe 0f9c aabd 406c 0ebe 2dd1 86bc
000001f0: 226b 483e 1677 2f3e a830 c53c aff7 e7bd
00000200: c7f3 8cbd c80f 31be 8899 8fbd 796c 3abd
00000210: 9fc0 933d df97 9b3d ccd6 14be f7d0 33be
00000220: bf97 46bc d874 923d bdac b0bd 5f88 04be
00000230: 9a55 193e 44fa 1ebd b69b 2bbd 6eae 01be
00000240: 229d c13d 72b9 313e fe5c 453e 508d e53d
00000250: 23f4 46bd 3942 a03c 9dfc 33be f555 d7bd
00000260: 01c1 ebbd 9888 bbbc 66a3 85bd feb2 51bd
00000270: acdc 293e b4ea 063d cf4e 81ba 4a44 03be
00000280: 3f26 0cbe e0c0 4f3d ecf1 1c3e c9dc 89bd
00000290: c2af 433e 5c8e c03d 64c3 253e 40f1 b53d
000002a0: 1f31 abbd 73de 2ebe 88b9 f2bc 4455 19be
000002b0: ee03 ac3d 7a98 423e eb57 283d 296b 3bbe
000002c0: 360b c2bd 5132 e13b c5ac 87bd 0540 ffbd
000002d0: ce00 3bbe f983 a2bd 80bc f1bc ccbe d2bc
000002e0: ce5b 84bd 5462 bcbd 6f79 d63d 8493 9abd
000002f0: 89cd efbc bd13 993c d1ba 86bd fde0 0f3e
00000300: 4d78 253e 20aa f83c 6149 e6bd 78cb bc3d
00000310: b017 233e ddba c1bd 8bd3 5dbd 7401 15be
00000320: ba35 9cbd efc0 dbbd c5a2 97bd 120e e4bd
00000330: 24fa fbbd b53d a1bd 12be 4a3e 56ec c1bb
00000340: a6cd a53d 47c0 b5bd 2715 dfbd 6cb2 14bd
00000350: a383 95bb 817d 12be 3f59 223c 61ba 6d3d
00000360: d3e8 333e 43e5 cc3d 62e2 1a3e c6ac 67bd
00000370: 9607 09bd aa91 7fbd 7516 b43d 4c70 363e
00000380: 3f0a efbd 7e4a c3bc c14d c83d d647 a83d
00000390: 4cfb 173e 9d8c 2f3d 72c7 c73d 606e 743b
000003a0: 206a d93d 6bcd 333e f6c8 c63c 523a 533c
000003b0: 51ac 703d bc5c 403e 6595 49bd 0afa 08be
000003c0: b77f fcbd 47cf 8e3c b068 883c 0390 393e
000003d0: bc1e 15be ec82 023e 5a23 153e 8d74 473b
000003e0: 5ce2 053e 6f2e ac3d dd6a cf3d 0514 a8bd
000003f0: 73a3 e0bd 9ce5 203e 4bb1 04bd b58e d93b
-0.111056685 0.1573091 0.04322738 -0.12611811 -0.10729123 0.0034529364 0.028608296 -0.13864587
0.116548315 0.091615506 0.0916618 0.019840822 0.043312423 -0.11201253 -0.017748475 0.011378185
-0.123633206 -0.009677332 0.19397794 -0.1353749 -0.07728849 0.08443178 -0.0060598813 -0.039995253
0.11717246 0.058100227 -0.10133174 0.08189267 -0.07986379 0.17942308 0.11294451 0.17317763
0.105153546 0.19090539 -0.14587432 0.10904995 0.051008087 -0.17815587 0.01506343 -0.051404763
0.0042179013 0.04778395 -0.16816507 -0.1621943 0.026972983 0.11677843 -0.15919328 0.1392468
-0.13901423 -0.004196086 0.062725015 -0.10726077 -0.10844702 0.1954826 -0.026366923 0.10700966
0.13208649 -0.17425796 -0.14069489 -0.07425698 0.11902264 -0.015709203 0.021162815 0.030511005
0.13211264 -0.026162084 -0.06397899 -0.043436233 -0.01499076 -0.08729272 0.12477096 0.08736639
0.03527491 -0.030640913 0.032638013 0.18492973 -0.1226256 -0.107002996 0.026071042 0.17828092
-0.12968953 -0.045316167 0.06900869 -0.15246734 -0.15975745 0.08661478 -0.13579142 0.14959653
0.109335154 -0.07825713 0.10778391 0.04897693 0.17336045 -0.030756176 0.12779042 0.11267299
-0.010739779 0.12128306 0.06841399 0.053384993 0.019599559 0.083264664 0.14854027 0.1250046
0.03811748 -0.1371273 -0.04205482 -0.121552944 0.18114083 -0.15126114 0.06936644 -0.15747532
-0.13641572 -0.16469684 0.02249652 0.05158311 0.18520606 0.102965295 0.06997372 0.029364957
-0.16902982 -0.08330547 -0.13908482 -0.016457165 0.19572118 0.17135271 0.024071053 -0.11326539
-0.06882434 -0.17291176 -0.07011706 -0.045513604 0.07214474 0.075973265 -0.14535064 -0.17560183
-0.01212114 0.071511924 -0.08626697 -0.12942646 0.1497406 -0.03881289 -0.041896544 -0.12664196
0.09453799 0.17355898 0.19273755 0.11208594 -0.04857267 0.019562827 -0.17576833 -0.10514442
-0.11511422 -0.022892281 -0.065253064 -0.05119609 0.16588086 0.032938674 -0.0009865406 -0.12819019
-0.13686465 0.05072105 0.15326661 -0.067315646 0.19110015 0.09402153 0.16187817 0.088839054
-0.083589785 -0.17077045 -0.029629484 -0.14973933 0.08399187 0.19003478 0.04109947 -0.18302597
-0.094747946 0.0068724533 -0.0662475 -0.12463383 -0.18262026 -0.07935328 -0.02950883 -0.025725745
-0.06462823 -0.09198442 0.1047238 -0.075476676 -0.029272811 0.01868617 -0.06578601 0.1405067
0.16159172 0.03035456 -0.11244465 0.09218496 0.15927005 -0.094594695 -0.05415682 -0.14551336
-0.07627435 -0.107301585 -0.07404093 -0.11135496 -0.1230357 -0.07873098 0.19799069 -0.005918066
0.08095865 -0.088745646 -0.10892706 -0.03630297 -0.0045628115 -0.14305688 0.009908973 0.058039073
0.17569284 0.10004666 0.1512542 -0.056561254 -0.0334545 -0.062394775 0.08793346 0.17816275
-0.11671876 -0.023839232 0.097804554 0.082168266 0.14841956 0.04285871 0.09754838 0.0037297234
0.10615945 0.1755883 0.024265748 0.012892323 0.058758084 0.18785375 -0.04921474 -0.13376632
-0.12329047 0.017432822 0.016651481 0.18121342 -0.14562505 0.12745255 0.14564267 0.003043446
0.1307463 0.08407294 0.101278044 -0.082069434 -0.109686755 0.15712589 -0.032395642 0.0066393265

StatefulPartitionedCall/sequential_1/dense_2_1/BiasAdd/ReadVariableOp:0 f4 [37]
00000000: 9652 703c 2cf4 a33c ea4d 843c fbbc 103c
00000010: bed7 493c 4e78 9c3c 64aa 9a3c 4bad 8e3c
00000020: 9590 753c 6a6d 413c 53fc 963c 8690 a23c
00000030: 48a0 8e3c 5973 c93c 85df 053c 4b05 a13c
00000040: 62bd a33c 3651 963c 3ac7 453c 42b4 113c
00000050: 2d8f bb3c 549d ab3c dc4d 903c b49a 8f3c
00000060: e519 933c cc9a 5e3c 3cbb 583c 40d4 363c
00000070: 4fa4 783c 013e b23c a35c 883c 6891 9b3c
00000080: b49b 7b3c d28f 983c c0c7 a63c 2ca4 c63c
00000090: 510d 033d
0.0146681275 0.020013891 0.016150434 0.008834119 0.012319503 0.019100334 0.018880077 0.017416617
0.014988084 0.0118058715 0.018430864 0.019844305 0.017410412 0.024591135 0.008170967 0.019655844
0.019987766 0.018349271 0.012071425 0.0088930745 0.02289542 0.020949043 0.017615251 0.017529823
0.017956683 0.013586711 0.013228234 0.011159003 0.015175893 0.021758081 0.016645735 0.018990234
0.015356947 0.018623266 0.02035892 0.024248205 0.03199512

StatefulPartitionedCall/sequential_1/dense_1_2/Cast/ReadVariableOp:0 f4 [128, 128]
00000000: 6ad6 15be 7dfc b93d b91f ad3d 0d34 24be
00000010: 559e 71bd 7f0e d73c 2af3 913d d849 a3bd
00000020: 9d47 183e dfb6 e23d 838a 96bd 7d65 1dbe
00000030: 450d 84bd 137b 423d fe2d b33d b1f1 423d
00000040: 0abd 1bbd 07ce bcbd fa85 88bd fa80 55bd
00000050: 03e3 f53d af28 a93d 54e3 04be 494e 51bc
00000060: 87b9 a53d 9b3f b8bd 704a 18be 6119 2a3d
00000070: 9ff3 973d 9877 a53d bf4f 5cbc 722d b43d
00000080: f470 babc 06fc f5bd 5991 e83c 8ac4 7c39
00000090: b096 163e 2708 acbb c4fd 463d 26ce d3bd
000000a0: 7245 173d bc44 cc3c 891d 1e3e c12a 4ebd
000000b0: f2bb 663d c1f7 133e 62b5 66bc 13b7 f83b
000000c0: a1c0 2b3c 1f81 fabd 11e8 ad3d 3deb bb3d
000000d0: bdee 4a3d 278c 853c 02de 793c 3804 fc3d
000000e0: e093 063e eb4a 863d c38a 1b3e 86f1 373b
000000f0: 4648 053e 1bba 92bd e05b f8bd 4c3b 2b3e
00000100: 03f5 183e a580 013e c461 c9bd 94ed 143c
00000110: 598c 17bd 2e70 b6bc 045b c93b 2769 e3bc
00000120: f9d5 ce3d 608b 0fbe 63f4 cbbd 1f25 32bd
00000130: 457a ed3d 483a c1bc 1e76 0dbe 52c0 023e
00000140: 24a7 99bc 1c58 e53d 4064 bf3d 318d 66bb
00000150: f45d d03d 82bd d3bd a137 bdbc c081 c93c
00000160: 4043 c13d 8a6c d33d bacf f23c 5be6 cebd
00000170: 1f58 19bd 5dac 8ebd 4858 1dbe 6a7b 00be
00000180: 3bee 8d3d 0b06 1e3e e6b5 11be 468f 94bd
00000190: 96da dcbc 7853 05bd af28 a7bd 781d 07be
000001a0: 7c9d b9bd cb89 34bd 6dbf c6bd 5789 bd3d
000001b0: 9d2c 9a3d 24b4 303d 6843 0cbe 613a 99bc
000001c0: ef08 4bbc 57d4 d9bd 5de8 51bd 2bc7 08be
000001d0: 5dc2 703d c297 0a3d e717 25bd 5e4f 11be
000001e0: 28b4 03be f350 433d 3893 d5bd 433e 5b3d
000001f0: c72f cfbd 1d1d 89bc 2025 1ebd abf8 2b3e
00000200: e9cc 8dbc e81d ba3d dc5f 243e c605 0b3e
00000210: 4c77 cabd b42f 07be c438 993d 3033 19be
00000220: d8d9 2dbd 9c61 7a3c c58b 9a3d d03e 05bd
00000230: b9cb 07be 264d 10be 235b 053b 8cf2 00bd
00000240: 5d8f 01bd 0084 123e 9753 13bc 108c 9d3d
00000250: 9bc2 c63d 3dd8 af3d e5e4 bf3c d843 733d
00000260: 6d79 06be f3d0 4a3d a473 15bd 2b02 bfbc
00000270: 07b1 183d b356 c93b 58c7 0c3e e7f8 e03d
00000280: 923a 41bb 6eb3 d83d b946 91bd 62f8 aa3d
00000290: bec5 5d3d 9978 e9bd 0920 8abd 42fb 9f3d
000002a0: 8a11 7e3d 292b a63c c2b9 48bd 8278 ba3d
000002b0: ce78 81bd bf6b b5bd 1caf b93d ebcb bebd
000002c0: b279 e6bc 6093 533d f0e3 8a3d ecd2 f8bc
000002d0: c90e ed3d a699 4d3b b5ab 903c 114b 16bd
000002e0: e5bf 3fbd 02e7 133e eeb8 f93d 218e 10be
000002f0: eb53 d63a fb1b 49bd 977b fd3d f51a bebd
00000300: 3b3f 2c3d b13e ccbd fd0e 973d dff8 09bd
00000310: ec5e 4b3d e86f 9fbb 073d c8bd 5c10 d7bd
00000320: ff00 95bd 1a2a fabc 8b8a b53d e4f9 da3c
00000330: 0809 893d ee20 903d 857b 0cbe 16e8 e4bd
00000340: 70b1 1dba c162 debd 0b51 153e 5970 15be
00000350: 4709 cb3d 187b a53d 2f6b 84bc 3ac8 123a
00000360: 53d3 fb3d ad7a 443d 9189 1e3e 1ad3 953d
00000370: 3a64 b33d 7390 cd3d 6df9 08be 6db2 87bd
00000380: 5454 f63d 635d 1c3d c4b1 0bbe 0b78 5ebd
00000390: d5ff 0d3c a500 fcbb dbd1 5bbd b60c 923d
000003a0: b5cf 613d e5cf ae3c cd0f 08be 3a83 253e
000003b0: 78ad 943b f29c 5abd 7a0d 193e dad6 e1bc
000003c0: 91e6 f33d f9d7 7ebd 5b5a 5abc e6f5 2cbc
000003d0: f724 a6bb 6a33 b83d f074 9ebd f2da ffbd
000003e0: f5dd 153e 338f d33d bedb b7bd 0add 34bc
000003f0: b29a e3bd 86ee 8cbd 7e78 813d f08e 05be
-0.14632574 0.090813614 0.08453316 -0.16035481 -0.058988888 0.02625203 0.07126458 -0.07973069
0.14871068 0.11070036 -0.07350638 -0.15370746 -0.064478435 0.047480654 0.08749007 0.047593776
-0.03802208 -0.09218984 -0.06666179 -0.052124955 0.1200619 0.08259713 -0.12977344 -0.012775012
0.08092027 -0.08996507 -0.14872146 0.04152811 0.07419514 0.08079451 -0.013446747 0.087977305
-0.022758938 -0.1201096 0.02838962 0.0002410581 0.1470592 -0.0052499953 0.048581854 -0.10342054
0.036931463 0.024935119 0.15440954 -0.050333742 0.056331582 0.1444998 -0.014081331 0.0075901835
0.010482938 -0.12231659 0.08491529 0.091757275 0.049544085 0.016302181 0.015250685 0.12305492
0.13142347 0.06557258 0.15189652 0.0028067543 0.13015851 -0.07164403 -0.12126899 0.16721839
0.14937215 0.1264673 -0.098331004 0.009089846 -0.03699908 -0.022270288 0.006144883 -0.027760101
0.10099406 -0.14018011 -0.099587224 -0.043492433 0.11595587 -0.023587361 -0.1381459 0.12768677
-0.018756457 0.11198446 0.09345293 -0.0035179371 0.1017417 -0.1033888 -0.023097815 0.024598002
0.09436655 0.103234366 0.029640067 -0.101025306 -0.037437554 -0.069664694 -0.15365708 -0.12547079
0.069302045 0.15431993 -0.14229545 -0.0725389 -0.026959699 -0.032550305 -0.08162057 -0.13194835
-0.09063241 -0.044076722 -0.0970448 0.09254711 0.075280406 0.043140545 -0.13697588 -0.018704595
-0.012392267 -0.10636204 -0.05124699 -0.13357227 0.05877911 0.033836134 -0.040306 -0.14190432
-0.12861693 0.04768462 -0.104284704 0.053526174 -0.10116535 -0.016737515 -0.038609624 0.16794078
-0.017309623 0.090877354 0.16052192 0.13576421 -0.09886035 -0.13201791 0.0748153 -0.14960933
-0.04244408 0.015282061 0.0754619 -0.032530606 -0.13261308 -0.1409193 0.0020348511 -0.03148131
-0.031630863 0.14308167 -0.008992097 0.076927304 0.09705087 0.08586166 0.023424575 0.059390873
-0.13132258 0.049515676 -0.036487237 -0.023316463 0.0372782 0.0061443686 0.13747919 0.10984974
-0.0029484374 0.105810985 -0.070935674 0.083481565 0.05414366 -0.11399955 -0.067443915 0.078115955
0.062028445 0.020284252 -0.049005277 0.09105016 -0.0632187 -0.088584416 0.090666026 -0.09316238
-0.0281342 0.05165422 0.06781757 -0.030374013 0.11575086 0.00313721 0.017660001 -0.036692683
-0.046813864 0.14443591 0.12193476 -0.14116718 0.0016351914 -0.04909895 0.123770885 -0.092824854
0.04205249 -0.09972895 0.07375906 -0.033684608 0.04965107 -0.004865635 -0.09777265 -0.10501167
-0.072755806 -0.030537654 0.088643156 0.026730485 0.06691176 0.07037531 -0.13718994 -0.111770794
-0.0006015515 -0.108586796 0.14581697 -0.14593638 0.09913879 0.08080119 -0.01616439 0.0005599294
0.12296166 0.047968555 0.15482165 0.07315655 0.08759351 0.10037317 -0.13376398 -0.06625829
0.12027803 0.038174998 -0.13642031 -0.0543137 0.008666952 -0.0076905065 -0.05366693 0.07131331
0.055129725 0.021339366 -0.13287278 0.1616334 0.0045372806 -0.05337233 0.14946547 -0.02756827
0.119092114 -0.062217686 -0.0133272065 -0.010556674 -0.0050703245 0.089941815 -0.07737148 -0.124929324
0.14635451 0.103300475 -0.08977459 -0.011039028 -0.1111349 -0.06881432 0.0632181 -0.13042808

StatefulPartitionedCall/sequential_1/dense_1_2/BiasAdd/ReadVariableOp:0 f4 [128]
00000000: 25dd 673c 487c 9eba 9a29 753b f9dc e3bb
00000010: 807b 29bb 8616 f9bb b6e6 b33c c381 e9bb
00000020: ed45 b23c 48f3 80bc 55b7 74ba eedc 82bc
00000030: fbf6 433c c6c9 283c 01c0 51bc 3256 223c
00000040: 3d8f 0cba 145d 913c 7f82 4abc 3675 153c
00000050: 7847 843b 16f6 813b d86b 0d3c 62fa 1dbc
00000060: 7702 fabb 1a57 20bc dfea 9539 d403 9c3c
00000070: d14b 9f3c cf3c dfbb 4a36 843b 92a3 9abb
00000080: 70fd 863c e1e7 b73b d3b9 863b af40 c3bb
00000090: ff68 00bc c62e 9539 eb65 67bc f2a3 cbbb
000000a0: 42a6 ac3b cd23 533c e790 193c b369 ff39
000000b0: 1307 73bc a3da 6f3c a689 6aba be92 fd3b
000000c0: 9f27 113c 26b3 d13b 559f 37bc f572 1e3c
000000d0: 0162 063b 1ce4 933a c1f8 73bc 61f6 013c
000000e0: b21a 2e3c 23cc 64bb 0000 0000 9c72 a03b
000000f0: 510e 5e3c 71e5 aa3c 148c 51bc 8d5d b33c
00000100: 87d4 093b 778a 80bb 3f16 9cbb 4788 84bb
00000110: d989 bfba 6215 b13c 5fe0 5b3b 2ace 253c
00000120: 64bc 9c3b 4f0c 483c 0e43 f6bb 561e 6cbc
00000130: 57ef cfbb 21db 5a3c cab6 a3bb 8e64 2cbc
00000140: b770 a23c b12a 913c 1807 6c3c 56bb bcbb
00000150: 4594 11bc 444d 063c f4d7 67bc 2624 93b9
00000160: 5b74 883c 4de6 983c 5127 11bb fe7f 7a3c
00000170: af67 c2ba ab2a 4d3c 0db7 08bc 997b 053c
00000180: 2fb2 96bc e9cd 10bc 53f6 ae3c efa1 27bb
00000190: 3cf0 f239 a744 273c 73c8 303c b172 bcbb
000001a0: c03c cb3c 40c6 f23a 34b4 013c b9ec 7a3c
000001b0: 70ce 433c 91a7 97bb 9e1d 02bc a9d2 853c
000001c0: c03b 07bc ce84 393c 965e 70bc 4e57 1dbc
000001d0: f416 8ebb 16d6 923c 75ae d6bb fb32 e13b
000001e0: 7392 a53c fd38 323c df58 883a 0d4c 533c
000001f0: 5572 7d3c e35b 8b3c 0fce 283a 23b1 ba3c
0.014151846 -0.0012091482 0.003740883 -0.006953832 -0.0025860965 -0.007601562 0.021960597 -0.0071260645
0.021761859 -0.015741006 -0.000933518 -0.015974488 0.01196074 0.010302013 -0.012802125 0.009908246
-0.00053619203 0.017744578 -0.012360214 0.009122184 0.00403684 0.0039661033 0.008631669 -0.009642215
-0.0076296884 -0.009786392 0.00028594487 0.019044794 0.019445332 -0.006812669 0.004034792 -0.004719206
0.01647827 0.005612359 0.0041115074 -0.0059586386 -0.007837533 0.00028454344 -0.01412342 -0.006214612
0.005268843 0.012886954 0.009372926 0.00048716142 -0.01483323 0.014639529 -0.0008946903 0.0077384403
0.008859544 0.00639953 -0.011207421 0.009670963 0.0020505192 0.0011283192 -0.0148908505 0.007932276
0.010626482 -0.0034911714 0.0 0.004896475 0.013553218 0.02086136 -0.012789745 0.021895194
0.0021031217 -0.0039227563 -0.004763394 -0.004044566 -0.0014613225 0.021616641 0.0033550484 0.010119954
0.0047832 0.012209966 -0.0075153178 -0.0144115295 -0.00634567 0.013357908 -0.0049961554 -0.010522021
0.019829137 0.017720552 0.014405988 -0.005759637 -0.008885448 0.0081971325 -0.014150608 -0.00028064958
0.016657045 0.018664503 -0.0022148679 0.015289305 -0.0014831926 0.01252238 -0.008344424 0.008147144
-0.018395511 -0.008838155 0.02135769 -0.0025578698 0.00046336825 0.010209239 0.010789978 -0.005750977
0.024809241 0.0018522218 0.007916499 0.015315228 0.011951074 -0.00462813 -0.007941632 0.016335802
-0.008253992 0.011323167 -0.014670989 -0.009603335 -0.0043362323 0.01792435 -0.0065515586 0.0068725324
0.020211434 0.010877845 0.0010402462 0.01289655 0.015469153 0.017011588 0.00064393965 0.022789543

StatefulPartitionedCall/sequential_1/dense_1/Cast/ReadVariableOp:0 f4 [116, 128]
00000000: 7467 76bd 1728 d3bd 02e4 b83d 9d74 893c
00000010: a1d3 f1bd f06e 93bd 5d82 6dbd 9fed 943c
00000020: 16fa 01bd 1b25 f23d a269 453a eba6 9d3d
00000030: 6734 f7bd 8eff acbd 1022 3c3d d37e e8bc
00000040: f2c9 a63c 2608 b03d a77b 2fbd 92e5 9cbd
00000050: 11e0 07bd f600 fc3d 2239 ab3d c602 03be
00000060: 64b5 9ebd a5c4 02be 9bde 4c3d f94c 18bc
00000070: bc04 06be d86c 07be 4452 debd 8fc8 173c
00000080: 8895 25be 8ae2 29be b782 01bb a8c8 8ebd
00000090: 8779 3b3c c410 cc3c 4fe2 123d 3d13 cbbd
000000a0: f8c4 ebbd 76a4 c7bd 1b8a ce3c e132 a9bd
000000b0: 7deb 41bd 4684 51bd cbe8 0ebe 779e 0fbe
000000c0: f6b8 953c 3a26 edbd 6c26 63bd c445 dc3d
000000d0: d9f5 8abd 8e9c a0bb e843 c83d 3cb1 abbc
000000e0: a184 e7bd 26a9 883c a5fb fb3d cfb0 fa3c
000000f0: 7adc 01be 3fa1 583d 5947 0f3e 9219 133e
00000100: 060a bf3d 394d 58bd 4e37 9a3d 863c 6a3c
00000110: 50d3 173e 13a8 e1bb 107b 61bd 6b76 893c
00000120: c60f 5f3d f394 e4bd 936f ac3d 2669 c53d
00000130: 5a06 b23d 01cb e93d 9083 dfbd 5d38 1dbe
00000140: 7464 063e 6ecc 883d fe0c 833d 5270 003e
00000150: cf07 fc3c 9896 0f3e cf93 673c 2370 57bd
00000160: a856 48bd d8ae c2bb b944 2fbd b3e0 cdbd
00000170: 4d63 483c 97be 1bbc e9be 23bc 7b32 70bc
00000180: 8302 593d 2dad 1ebd 3627 1e3d 884e babc
00000190: af70 f43d ac74 3bbd feb7 64bc 3de4 a5bd
000001a0: 8a2a d2bd aa05 cd3d ad23 f8bd b0a8 acbd
000001b0: 87ee d7bd f07c 263e 0ba6 bebd d418 9d3d
000001c0: 2555 febd cdec 423c 09c9 163e f355 c8bc
000001d0: f419 e0bd d396 87bd 0381 b6bd 1b58 ee3c
000001e0: 96e7 033e e81b 103e ac3b 173d 2d7a 7dbd
000001f0: a850 fe3d f5da a9bd 2175 d73d 95cf 853c
00000200: c87f 133d bd86 083e 4b56 953d 4e85 0a3e
00000210: ce4f 023e 9f87 1c3e 65cf 96bd 1916 09be
00000220: 1c14 aebd 429b 0f3e c207 ea3d 9f4f e2bd
00000230: dafc c23d 23d7 853c 05b2 08be f305 81bd
00000240: 8ef2 89bd 6771 6d3d 57a6 833d a672 dd3d
00000250: bc47 aabd 2901 243d a2e6 17be 2c57 12be
00000260: 41ce a8bd b62e 48bd 4b1e 21bc 8258 fa3d
00000270: 1a02 84bd 8425 b9bc ed53 8fbd 98c0 6abd
00000280: b79b f6bd bda5 a83d 952d 9b3c 0547 c5bd
00000290: fbec 80bd 8c9d 733b c5bb 623d d625 8dbc
000002a0: eb12 8abd 40ed 31bc e002 79bd 316e 233e
000002b0: 3cf8 003e 8859 0bbc be20 a23c f899 fcbb
000002c0: 140c 203e 60d1 69bd c95d d1bd a71c 203b
000002d0: f90f db3d bf25 f43d ed3f 013e 4c4f fbbc
000002e0: 566e 1e3e 52c9 a7bd cb0b 43bd 11cc d23d
000002f0: 6f21 2cbc 625d 1bbe 66a5 7ebb a3e5 de3d
00000300: 89f9 fd3d eb21 b63d fada a63d c054 6c3d
00000310: 23aa 953d c8b4 a2bd 0f5a e0bb 1475 f8bd
00000320: 10f8 513c c282 b8bd 7816 893d 4a1a 093e
00000330: 2f8e 9ebc 2da1 febd dd12 d43d fc5f c53b
00000340: 42f3 0fbe 3364 133d 7a1e 06be 54cf 933d
00000350: 69a1 243d 4b5a 96bb 41cb e7bd 22c7 7d3d
00000360: 70cd 873d 637d 3d3d 6135 c33d 8087 e63b
00000370: b607 e33d f354 e23c bc1b f0bd f5ce 963c
00000380: b639 a4bd 89e4 0d3e 2700 72bd 4f35 8e3d
00000390: 63b4 6abd fb8b 00be 1495 fe3d c73b c7bd
000003a0: de09 8dbd 71fe 153d 9d4b 4a3d 7cf0 75bd
000003b0: 763c 81bd 2c45 ef3c 0f7d cf3d 89f9 ccbd
000003c0: 9df1 03be 89a0 1f3e c8f7 9d3d 0ae5 98bc
000003d0: 0f32 903d 2369 413d db38 a13d 9200 bdbd
000003e0: f715 803c 5720 d53d e365 bbbd 69be d33d
000003f0: 2959 82bd ea2d dabc e4e9 03be d12e e13d
-0.060157254 -0.10310381 0.09027864 0.016779238 -0.11807943 -0.07198894 -0.057985652 0.018179713
-0.03173264 0.118234836 0.0007530694 0.07697853 -0.12070542 -0.08447181 0.045930922 -0.028380787
0.020359967 0.08595304 -0.042842533 -0.076609746 -0.03317267 0.12304871 0.083605066 -0.12794027
-0.07749441 -0.12770326 0.05001698 -0.009295695 -0.13087744 -0.13225114 -0.10855535 0.0092641255
-0.16170323 -0.16590324 -0.001976175 -0.06971866 0.011442549 0.024910338 0.035860356 -0.09915779
-0.11512178 -0.09748165 0.025212338 -0.082616575 -0.04734372 -0.051151536 -0.13955991 -0.14025293
0.018276673 -0.11579557 -0.055456564 0.10755494 -0.06785173 -0.0049014753 0.09778577 -0.020958535
-0.11304594 0.016682219 0.12303857 0.030601887 -0.12681761 0.05288815 0.1399206 0.14365223
0.09328084 -0.05280802 0.0753008 0.0142966565 0.14826703 -0.006886491 -0.055049002 0.016780099
0.054458402 -0.11161222 0.084197186 0.09639196 0.08692618 0.11415673 -0.109137654 -0.15353532
0.13124257 0.06679617 0.063989624 0.12542847 0.030765442 0.1402229 0.014134361 -0.052597176
-0.048910767 -0.005941253 -0.04279015 -0.100526236 0.012230706 -0.009505889 -0.009994247 -0.014660473
0.05298091 -0.038739372 0.038611613 -0.022742525 0.11935555 -0.045765564 -0.013959883 -0.081001736
-0.1026202 0.10010846 -0.121161796 -0.08430612 -0.10543542 0.16258597 -0.09309014 0.07670751
-0.12418584 0.011897278 0.14725126 -0.024455046 -0.1094245 -0.06620564 -0.08911326 0.029094746
0.12881312 0.14073145 0.036922142 -0.061884094 0.12417728 -0.08293716 0.105203874 0.016334334
0.036010534 0.13332649 0.0729185 0.13527414 0.12725756 0.1528611 -0.07363776 -0.13387336
-0.08499929 0.1402407 0.11427261 -0.11050343 0.09520884 0.016337937 -0.13349159 -0.06299963
-0.06735717 0.057969477 0.06428211 0.10812883 -0.083144635 0.04004017 -0.14834073 -0.14291066
-0.08242465 -0.048872672 -0.009833883 0.12223913 -0.06445713 -0.022600897 -0.069984294 -0.057312578
-0.12041419 0.08234737 0.018942634 -0.096326865 -0.062952004 0.0037172763 0.055354852 -0.017229956
-0.067418896 -0.010859787 -0.060793757 0.15960003 0.12594694 -0.008505233 0.019791003 -0.007708784
0.15629607 -0.05708444 -0.10222966 0.002443114 0.10696406 0.11921262 0.12622042 -0.03067746
0.15471777 -0.08192696 -0.04761867 0.10292829 -0.010506018 -0.15172341 -0.003885591 0.108836435
0.12401111 0.08893188 0.08147235 0.05769801 0.07307842 -0.079446375 -0.0068466733 -0.12131706
0.01281549 -0.09009315 0.06693739 0.13388935 -0.019354908 -0.124330856 0.103551604 0.006023405
-0.14057639 0.03598423 -0.13097563 0.07217279 0.040192995 -0.0045884005 -0.113180645 0.061957486
0.06630981 0.046262156 0.095316656 0.007035196 0.11085455 0.027628398 -0.1172404 0.018409232
-0.0801882 0.1385671 -0.059082177 0.069437616 -0.057300936 -0.12553398 0.12430778 -0.097281985
-0.06886648 0.036619607 0.049388517 -0.060043797 -0.0631036 0.029207788 0.10131275 -0.100085326
-0.12885137 0.15588583 0.07713276 -0.018663902 0.07040798 0.047219407 0.078721724 -0.092286244
0.015635474 0.10406559 -0.09150293 0.10339052 -0.06364662 -0.026633222 -0.12882191 0.10995258

StatefulPartitionedCall/sequential_1/dense_1/BiasAdd/ReadVariableOp:0 f4 [128]
00000000: 85a4 a7bb 6563 07bc ef23 4a3c 496e 96bb
00000010: 701f 03bc e22e cbba 89e0 5b3c 9fa8 a1bb
00000020: 6841 413c 293b 383c 0aa5 aa3b e53f 043c
00000030: 74ed 233b 163a 943b 3654 80bb 4761 a23c
00000040: fa1b 9d3c 448f 943b d6d3 a1bb 2e59 3b3c
00000050: 55fb a93c 35ef c53c e87f a23b 0e25 553c
00000060: 2b61 81bb 5baf a7bb 7f62 ce3b ac04 1e3c
00000070: 772f 113c 9cd2 d9b8 71b6 693c 3491 4bbb
00000080: b3a1 b23c b470 413c 149c a33b d0d6 783c
00000090: b870 c0ba 742d c0ba c855 1abc ceef 233b
000000a0: 0261 b33b de51 503c 6aef 2abc c125 323c
000000b0: f9f7 663c 7afe d63b d200 a83b 22dc 00bc
000000c0: 0cba 7f3c fc3d 093c 5bd4 c33c 5788 8f3c
000000d0: 9407 0e3c 7d99 613c 8b11 9c3c bcb2 d1bb
000000e0: 7eeb 943b ddc7 0f3b db2b 43bc ece1 9f3b
000000f0: 4d5d 4c3c 7b2f 8abc 85ee c13c 9f1b b43a
00000100: 0427 9d3b ee4c 403b 6c60 25bc dc4a 71bc
00000110: 4e19 de39 d7ad 053c fe71 9f3c c707 11bc
00000120: c8c4 88bc 4083 883c 98aa c63c 295e 893c
00000130: edbe 9c3c 2f94 543c f442 efbb 1bc4 02bc
00000140: df12 633c bd73 093c 6872 09bc ee18 5dbc
00000150: ac52 243c 4512 aa3b 4f72 143c 2114 c3bb
00000160: c59a fbbb 7d9a 7cbb c0ac 303c 08f8 f73a
00000170: 4aaf 763c 9517 5e3c 53b1 2e3c 560e 323c
00000180: b370 5b3c dcde 0cbb 714a 16bc e755 f43b
00000190: a523 45bc 2989 20bc f77b 53bc e61c a33c
000001a0: ac64 bcbb 61d9 9f3c e36e 453c 647c ae3b
000001b0: 02a7 3d3c 1857 a63c e01c 433c 8a1b bc3c
000001c0: e7a5 aa3c 4ce3 ae3c 564e 963c cb8b 593c
000001d0: 2b23 cd3a 7716 9b3c ff19 bbbb 106e 9b3c
000001e0: 642e 823c 2607 fb3a aaf7 2b3c 59db b9bb
000001f0: bed4 723c 322c 59bc 7226 ccbb 3165 26bc
-0.005116048 -0.008263444 0.012337669 -0.0045907837 -0.008003101 -0.0015501643 0.013420233 -0.0049334313
0.011795379 0.011244574 0.0052076625 0.008071874 0.002501336 0.004523526 -0.0039162887 0.019821776
0.01917838 0.00453368 -0.004938583 0.011434836 0.020749727 0.024161914 0.0049590953 0.013009323
-0.003948351 -0.0051173395 0.0062983627 0.009644669 0.008861414 -0.000103865954 0.014264689 -0.003106189
0.02180562 0.011806656 0.004992971 0.015187934 -0.001468203 -0.0014661984 -0.009419866 0.002501476
0.0054742107 0.012714831 -0.010433057 0.010873259 0.014097207 0.0065610977 0.005127051 -0.007864984
0.015608322 0.008376595 0.02390497 0.017521067 0.008668799 0.013769505 0.019051334 -0.0063994806
0.0045446744 0.0021939196 -0.011912311 0.004879227 0.0124734165 -0.016868344 0.023673305 0.0013741142
0.004795911 0.0029342729 -0.01009379 -0.0147273205 0.00042361993 0.008159122 0.019463535 -0.008851952
-0.016695395 0.016664147 0.024251267 0.016768532 0.01913401 0.012974783 -0.0073016826 -0.0079813255
0.01385948 0.008389411 -0.008389093 -0.013494713 0.010029476 0.005190166 0.009060456 -0.0059533273
-0.007678362 -0.003854423 0.010783374 0.0018918524 0.015056441 0.013555427 0.010662395 0.010867676
0.013393569 -0.002149514 -0.009173022 0.0074565294 -0.012032424 -0.0097983265 -0.0129079735 0.01991124
-0.0057493057 0.019512834 0.012050363 0.005324887 0.011575462 0.020305201 0.01190874 0.02296235
0.020831062 0.021348618 0.0183479 0.013277958 0.001565074 0.01893161 -0.005709886 0.01897338
0.015891261 0.0019151911 0.010496059 -0.0056719 0.0148212295 -0.013255166 -0.006230169 -0.010155962
